models/adult/ann.pt (torch, 5879 bytes, 8 tensors)

weight f4 [18, 13]
00000000: b7df e93d 8378 323e fa4b 97bc fa5a 2cbf
00000010: 16d8 303e a820 d33d 5b35 b13e 8143 9e3e
00000020: c517 fe3d 3bb2 49be 576c d73e 40e7 9abd
00000030: d3d5 983e c04e e13d 8a2e c73d 4aba bebd
00000040: 6951 363e 344e 8a3e ba16 18be 886f 03be
00000050: 75b0 d6bd e12b ec3d 4328 37be 2a80 e8bc
00000060: 28cf 0bbe d298 27be 323b 833e 6555 f73d
00000070: 6ec3 af3e 5375 9a3f f090 3d3e 474f 9e3d
00000080: ef8c 2fbe a843 4dbd d5af 7e3e bace 4e3d
00000090: 32e1 833e bdd9 9f3e a163 1a3e 6c02 1c3e
000000a0: 9abb f5bd 754b fe3d 1daa 873f 03d8 08bf
000000b0: cc4a e23d 2145 013e d577 9b3e c60e 443e
000000c0: 069e b4bd 3a62 6bbd ec37 00bd c092 f2bd
000000d0: 0f3c 3bbe 2c3e 653b 51f2 33be ca41 e9bd
000000e0: c364 b5bd 3133 37be d743 6ebd 3ad0 993c
000000f0: 6ff4 363e d295 70be c018 79be 645b f83c
00000100: 2c7f c53d 8204 ab3d 297a 11bc 819c a5be
00000110: 41eb 9cbf 6898 b2be 7c0d 15be 46fd 883d
00000120: b666 973e 6f8c 683e f6b2 543e 8d7b d33d
00000130: 44ca 4e3e 860a 8dbd 52b0 37bd c378 37bc
00000140: ba85 dcbd fc74 12bd 1c8f 3d3e 5ad9 ef3d
00000150: 16d3 35be 8eae 13be ab69 263d 1f9a 90bd
00000160: a8ad 36be 7e19 86be 4454 53be 76c9 273d
00000170: 9cdc 04bd d612 8bbe 4f47 39bf 6719 acbe
00000180: 40a9 abbe 4413 3a3e 2201 2fbe a1e5 9abc
00000190: c888 17be 8219 34be 5cae 5a3e 0301 a23e
000001a0: 2161 5c3e ddbb 3cbe 75da 19be 09f4 99bf
000001b0: 56a9 a8be f410 9dbe 5038 323e d6b1 ac3e
000001c0: 9ac0 563e ea4c a0bd 8ee4 21bb b063 9dbc
000001d0: 7e2c fdbd 9d8d 783e c124 d93e 421a 1c3f
000001e0: 2813 6f3f 9d25 3e3e ad2d 1c3f 7faf 023e
000001f0: a983 17be da48 cb3e 1cf0 a53d dd33 213e
00000200: dbaf 013f 4417 b23d 09a2 b23e 5473 05be
00000210: 1537 cc3e 367c 663f 210f ba3e 4dfa 003e
00000220: f945 73be e7d7 b4bd 2a54 9b3d ebea 553d
00000230: ece7 a9bd 8786 483e 958a 0fbc 5ffa f23c
00000240: c42d 003e a9be 9bbe 8f0e 46bf 5211 ecbe
00000250: f302 83be 08c6 63bc dd91 e8be 217f 213e
00000260: 2769 1fbd 7cad 933d 24b5 6f3e 0139 bf3d
00000270: 4c7f 603d 35be 48bb c2ed 4cbe c1c1 b0bf
00000280: 8c43 a7be 3e83 f73d 59b3 47bc 933e a13e
00000290: f209 9a3e 3a1d d23d 2362 e8bd eeb6 1a3e
000002a0: 1b8b c53d 65df a1be bee3 5abd 2a4b 11be
000002b0: c5cb 95bf 6824 ca3d 2bf3 353e 0c44 d1bd
000002c0: 4efe 5e3e 64ef 96bd d4f9 e03e 1c53 89bd
000002d0: eaaf a43e 1692 4c3d 1192 293f d189 613e
000002e0: 5b45 c43e 410a 1f3f 8dfb 063e 90a6 443f
000002f0: a85c d13e 090d 8bbd f07d 3cbd 03a1 1e3c
00000300: 6022 273e 349d 9b3e 27e1 053f 0d22 683e
00000310: 9b66 9c3d 1f55 2f3f e595 9e3f 6476 943e
00000320: 2e84 fe3d af4b 823e 1cf9 98be e534 5d3e
00000330: 4551 a6bd 5392 aabd c53c 203e ec31 b13e
00000340: d30d c83d 4248 f93d a538 d6be b12e a7bf
00000350: 7225 37be b374 c63d 6d93 a7bd d02c 333e
00000360: 5526 1d3e ce2c 0b3e 0d74 213e 5890 3c3e
00000370: 4891 1c3e 70d6 d33e e820 b73d af98 013d
00000380: ed73 a53e ca99 a53e 0768 b73e d0c0 593e
00000390: d6c9 a0bd f7a6 63bd 1e4c 0b3e ad4c 9e3e
000003a0: 6e36 9a3e be32 b63e
0.11419623 0.17428784 -0.018468846 -0.6732632 0.1726993 0.10308963 0.3461102 0.30910876
0.124068774 -0.19696896 0.42074844 -0.07563639 0.29850635 0.110013485 0.097256735 -0.093128756
0.17804493 0.2701279 -0.1485242 -0.12835515 -0.10482875 0.11531807 -0.17886452 -0.028381426
-0.13653243 -0.1636689 0.256311 0.120768346 0.3432879 1.2067055 0.1851232 0.07729965
-0.17143606 -0.05011335 0.24871762 0.05049012 0.25757748 0.3122081 0.15077068 0.15235299
-0.11998673 0.12416736 1.059879 -0.5345461 0.110494226 0.12624027 0.30364862 0.1914626
-0.08819203 -0.057466723 -0.03130333 -0.118443966 -0.1828463 0.0034979684 -0.17572905 -0.113895014
-0.088571094 -0.17890622 -0.058170166 0.018776048 0.17866682 -0.23494652 -0.24325848 0.030317016
0.09643397 0.08350469 -0.008879223 -0.32345966 -1.2259294 -0.34881902 -0.14555925 0.06688933
0.2957055 0.22709821 0.20771393 0.103263 0.20194346 -0.06886773 -0.044845887 -0.011198225
-0.10767694 -0.035756096 0.18511623 0.117113784 -0.17756304 -0.14422056 0.040628117 -0.07060646
-0.17839682 -0.26191324 -0.20637614 0.040963612 -0.032436952 -0.27162808 -0.72374433 -0.3361313
-0.33527565 0.18171412 -0.17090276 -0.018908324 -0.14798272 -0.17587855 0.21355575 0.31641397
0.21521427 -0.18431039 -0.15024741 -1.2027599 -0.32941693 -0.30676997 0.17404294 0.33729428
0.20971909 -0.0782717 -0.002470288 -0.019212574 -0.12362002 0.24272771 0.42410854 0.60977566
0.93388605 0.18569036 0.61007196 0.12762259 -0.14796318 0.3970402 0.08102438 0.1574244
0.5065896 0.08695844 0.34889248 -0.13032275 0.39885774 0.9003328 0.36339667 0.12595482
-0.23757161 -0.088302426 0.075844124 0.05222599 -0.08296189 0.19582568 -0.008761068 0.029660402
0.12517458 -0.304189 -0.77365965 -0.46106964 -0.25588188 -0.013902195 -0.45423785 0.15771152
-0.03891864 0.07210824 0.23408943 0.093370445 0.0548089 -0.003063095 -0.20012572 -1.3809129
-0.32668722 0.12085579 -0.012188756 0.31493053 0.30085713 0.10259481 -0.11346843 0.15108845
0.09645673 -0.3161575 -0.053439848 -0.14188829 -1.170281 0.09870225 0.17768542 -0.10218057
0.21776697 -0.07369879 0.43940604 -0.06705305 0.32165462 0.049944006 0.66238505 0.22025229
0.38334164 0.6212502 0.13181897 0.76816654 0.40891004 -0.06789596 -0.04601854 0.009681943
0.16321707 0.30393374 0.5229668 0.2266924 0.07636758 0.6848926 1.2389494 0.28996575
0.12427555 0.25448367 -0.29877555 0.21602209 -0.0812097 -0.083286904 0.15648182 0.346084
0.09768262 0.12171985 -0.4184009 -1.3061124 -0.17885378 0.09690227 -0.08182416 0.17497563
0.15346654 0.1359131 0.15766926 0.18414438 0.15289795 0.4137454 0.08941823 0.03163975
0.32315007 0.32343894 0.35821554 0.21264958 -0.07850997 -0.055579152 0.13603255 0.30917874
0.30119652 0.35585588

bias f4 [18]
00000000: fa96 a13e 68cf 7dbe b360 1d3e df5f c13d
00000010: 275d 44be be39 473e b0b5 433c f18d 133e
00000020: a291 da3e d6fa 163e 7517 f63d 8ff3 a03e
00000030: e495 213e a5f3 8e3d db2e d43e becd 14bd
00000040: d22b cc3d 8112 42bc
0.31560498 -0.2478615 0.15368919 0.09442114 -0.1917616 0.1945562 0.011945173 0.14409615
0.42689234 0.14744124 0.12016193 0.3143582 0.15779835 0.06980065 0.41441998 -0.036329024
0.099692956 -0.011845232

weight f4 [9, 18]
00000000: af85 293e 749e 13be 70fb e2bd f246 40be
00000010: 1f64 01be c1c8 e93e 3e00 b7bd 90de 9a3e
00000020: 7253 c73e 4f0b b83b 1e36 6abe 4fbe 453f
00000030: b7e1 103f 5796 d13e daa6 8b3d 45a6 22be
00000040: 81b4 db3e 6980 81bd 8840 833d c957 21be
00000050: 9f4d 823d 7a62 7bbe cab0 adbd c622 493b
00000060: c8ea 143e a6ed ca3d 2153 1e3e 541c 99be
00000070: 32ca 6cbd 795a 123e 9c75 913d d9f6 c6be
00000080: 41a5 83be 6032 b4bd 7b19 063e 4704 8ebe
00000090: 6660 593e 00be 123e 4917 1dbd cd01 bbbe
000000a0: 2a92 a6bd ed0a c13e 47e8 6dbe 705e a73e
000000b0: 0231 083f 7ed0 01bd c1eb c6be 43c1 c13e
000000c0: 1094 ea3e 74d3 053f 9380 e73d 2bf3 e1be
000000d0: 907e 973e 2d23 3e3e aa12 883d 4b57 253e
000000e0: 7d55 c73d 8eba c0bd 50f5 293e 9138 343e
000000f0: d066 12bd aeb5 063e 37ea 623e 964a b33d
00000100: 8079 82be e0c0 ef3e 1b04 313e be2d d93e
00000110: a6b7 f9bd 8f5b 68be c430 8ebd ed68 593c
00000120: bd61 a63e e1e3 8b3d 6682 fcbd 5a2e bebd
00000130: f6b1 34be bd9d 8f3e 037c 5fbc 9f5f 973e
00000140: 1105 a43e aa89 58be 198e a3bc d133 c83e
00000150: 9eb1 d23e 0729 d93e 602c 803c 9e81 a53c
00000160: 204f b43e 37d2 e9bd 141f d53d 3b99 023e
00000170: d27c 67be 5b3a abbd a108 36be 4d25 52be
00000180: a1bb 52be d124 54be d5e3 36be 7026 26be
00000190: 1cfe 2fbd b37e 2dbb d88d ce3d c73d 25be
000001a0: e21e fbbc b501 2fbe 8e24 4d3e 2db5 033e
000001b0: 3677 003e 1cb4 293e 5b90 19be 224d a4be
000001c0: 5601 b33d ebcb 103f f551 303d 438a f63e
000001d0: 1d03 de3e d657 3f3d 3d05 78bd ea4b 0d3f
000001e0: c637 b93e 2521 0b3f 286f f6bc ad40 64be
000001f0: e974 203e f719 173e 81f5 a03e 7dc8 363e
00000200: bad3 e33e 9c9d d23e 4bae c6bd 9e3c 73be
00000210: 95a9 153e f123 b8be ca1b b0be 0330 1a3f
00000220: 2ff0 a73e 8067 8abe 372e 8bbd c2b0 5fbe
00000230: 0772 3b3f d767 013f 6ad9 7ebd 16c4 6b3e
00000240: 7a31 763d a345 123d 412d aabd a653 663e
00000250: 51c4 2dbe 9a49 dcbd fb56 543e 68b7 9f3d
00000260: 0dd7 4abe 2d3e dbbd 37dd 44bd fc1d 77be
00000270: c88d 433c 7438 27be 4a7b 8f3d 868c 2bbe
00000280: 415a 60be 5c13 803b
0.16554902 -0.14415914 -0.11083114 -0.18777063 -0.1263585 0.45660976 -0.08935593 0.30247927
0.3893085 0.0056165825 -0.22872207 0.7724351 0.56594414 0.40935013 0.06818934 -0.1588374
0.4291115 -0.063233204 0.06408793 -0.15756144 0.06362461 -0.24549285 -0.084809855 0.0030690893
0.14542687 0.09908609 0.15461399 -0.29904425 -0.057810016 0.14292325 0.0710251 -0.38860205
-0.25712016 -0.08798671 0.13095658 -0.27737638 0.2122818 0.14330292 -0.038352285 -0.3652481
-0.08133347 0.37703648 -0.23233138 0.32689238 0.5319978 -0.031692974 -0.3885174 0.3784276
0.45816088 0.52275777 0.113038205 -0.44130835 0.29588747 0.18568106 0.06644185 0.16146581
0.097331025 -0.094105825 0.16597486 0.17599703 -0.03574258 0.13155243 0.22159658 0.087544605
-0.25483322 0.4682684 0.17286722 0.4241771 -0.12193231 -0.22691177 -0.06942895 0.013269645
0.32496443 0.06830574 -0.12329559 -0.092861846 -0.17646012 0.28050032 -0.013640407 0.2956514
0.32035115 -0.21146265 -0.019965218 0.39102033 0.41151136 0.42414114 0.01564616 0.020203408
0.35216618 -0.114170484 0.10406318 0.12753765 -0.22606209 -0.0836074 -0.17776729 -0.20522042
-0.20579387 -0.2071717 -0.17860349 -0.162256 -0.042966947 -0.0026473224 0.10085648 -0.16136847
-0.030654375 -0.17090495 0.20033476 0.12862082 0.12545475 0.16572613 -0.14996473 -0.32090098
0.08740489 0.56561154 0.04304691 0.4815236 0.4336175 0.046714626 -0.06055187 0.5519396
0.36175364 0.5434745 -0.0300823 -0.22290297 0.15669598 0.14755999 0.31437305 0.17849918
0.44497472 0.4113587 -0.097012125 -0.23753592 0.14615472 -0.3596492 -0.343962 0.6022951
0.32800433 -0.2703209 -0.06795924 -0.21844772 0.73220867 0.5054907 -0.06221906 0.2302402
0.06010578 0.035710942 -0.08309413 0.22492847 -0.1696942 -0.10756226 0.20736305 0.07798654
-0.19808598 -0.107052185 -0.04806253 -0.24132532 0.011935659 -0.16330129 0.070059374 -0.16752824
-0.21909429 0.003908558

bias f4 [9]
00000000: 77ea 18bd 6288 183d 54ba e1bc 28cf 8a3e
00000010: 898a 853d a384 82bd 72a1 00bd b3bc 713e
00000020: e188 f93c
-0.037332978 0.03723944 -0.027554668 0.27111173 0.06520564 -0.06372955 -0.031403966 0.2360714
0.030460777

weight f4 [3, 9]
00000000: 46a6 353e 66cc f23d 4e61 35be 31bb 9b3e
00000010: 571a 4f3e c777 453c 747f 7bbe 6f45 85be
00000020: ff18 3bbe 1182 17bf c887 db3d eb52 f9be
00000030: a329 84be 1cd1 febe 2869 54be 8997 42bf
00000040: 85b7 143f e2c3 4cbd f3ed 9fbe fb29 33bd
00000050: 707b 883d a588 8bbe 2805 7dbd 4621 463e
00000060: cc61 923e 0872 95be 00a6 fe3d
0.1773921 0.11855392 -0.177129 0.30416253 0.20224892 0.012052483 -0.24560338 -0.26029536
-0.18271254 -0.5918284 0.107192576 -0.48696074 -0.25813016 -0.49768913 -0.20743239 -0.76012474
0.5809253 -0.049991496 -0.31236228 -0.043741208 0.06664169 -0.2725269 -0.061772496 0.1934863
0.28590238 -0.2918856 0.12434006

bias f4 [3]
00000000: 3848 15be 287a 933e 711b f43d
-0.1457833 0.28804135 0.119192965

weight f4 [2, 3]
00000000: b24c 2dbe 1bab bfbe 6e36 81bd da3e e33e
00000010: eaf9 3a3f e90a db3e
-0.16923788 -0.3743523 -0.0630921 0.4438389 0.7303759 0.4278176

bias f4 [2]
00000000: 8443 9b3f d320 9dbe
1.2129979 -0.30689105
