models/adult/ann.pt (torch, 6087 bytes, 7 tensors)

weight f4 [18, 20]
-2.494005e-06 -6.8191844e-07 -2.339562e-06 2.1628722e-07 -5.6213707e-06 -2.266825e-06 -2.722201e-06 -1.329445e-06
-1.2321226e-06 -1.558665e-06 -1.5851015e-06 -3.30712e-06 -2.4139435e-06 -6.1525833e-07 -6.58995e-07 -2.2212432e-06
-4.28318e-06 -1.2652815e-06 -2.0541783e-07 -3.4506186e-06 -0.07921 -0.015213966 0.17702991 0.0025666503
0.015444495 0.024978671 0.022270191 -0.018563071 -0.0840055 -0.038932055 0.08074148 -0.058526587
0.013188808 -0.12997915 0.02005162 -0.015438786 -0.01668962 -0.010527336 -0.024189869 -0.053195145
-0.30257317 -0.252162 -0.55390894 1.0211061 -0.3230214 0.11295067 -0.06003036 0.058695808
0.1630363 0.032368258 -0.2075499 0.44855192 -0.037374415 0.18046042 0.07499326 0.047613572
0.04608497 0.019684654 0.35002962 -0.099993356 -0.07546876 0.0073887776 0.45505825 0.6443413
0.13086623 0.195595 0.022272311 0.14105633 -0.014307138 0.04602128 0.25095433 -0.21666244
0.17690688 -0.16889925 0.24579114 -0.078647286 -0.052136566 0.054897234 0.011576912 0.077746555
-0.045243673 -0.007407642 -0.08865207 0.0020867633 -0.00061984174 -0.037335314 -0.021241806 -0.0028869694
-0.012474629 -1.1219745e-06 -0.018653765 0.07798193 -0.020341199 -0.010764264 -0.0038279488 0.022304019
0.007311155 -0.027244193 0.01232631 -0.040500544 -0.00072117837 0.00021692157 -0.003161858 0.00059677573
0.0012355269 -0.002404622 -0.0038852456 -0.0006779485 -0.004400109 -0.00095555367 -0.0038145513 -0.00015149952
-0.0033166206 -0.0012413653 -0.0006554981 -0.004145478 0.0012443681 -0.0048385817 0.00020784601 -0.003878646
-0.13361676 0.30027223 0.5870596 2.6918075 0.37868914 0.2796308 0.18141256 0.04294581
-0.010641884 0.032038007 0.047270343 0.24013402 0.05509582 0.07340958 0.04817571 0.24026799
0.025190253 0.015454335 0.0059989165 0.01806887 -1.5318648 0.20988804 -0.24992119 -1.1346911
-0.02032756 -0.35059285 0.013297574 0.14200132 0.11955245 0.1668654 -0.13788426 0.03244323
0.1927691 0.14433151 0.032203306 0.037813455 0.14827612 0.11750537 0.123544954 0.055344198
-0.36788046 0.25177184 -0.27722678 0.79167795 0.06889656 -0.36878014 -0.03534363 0.09840099
0.04731827 0.23797257 -0.28183177 0.39531994 -0.1545114 0.45751342 -0.13565797 0.011792338
0.19272958 0.095460914 -0.23934664 0.25541782 -0.22362147 -0.08067188 -0.1523533 0.06623474
0.012182303 -0.06845348 -0.0066573983 -0.066806145 -0.088514574 0.07734651 -0.09266288 0.14855896
-0.06938992 0.04813338 -0.018774552 0.06591227 0.046613842 -0.04909229 0.03619954 -0.052947007
0.09982358 0.073912926 -0.46144044 -1.0926677 -0.11970894 -0.23705877 0.103995584 0.13656442
-0.04466777 0.14176528 -0.26879045 0.19970866 0.067289405 0.40472335 -0.26989362 0.196995
0.23100817 0.13490751 0.28597704 0.21039972 -0.07671555 -0.011177715 0.41862756 0.40927726
0.12196768 0.16925186 0.011437805 0.09593782 -0.045035254 0.04158901 0.25701848 -0.2272116
0.15203445 -0.18569723 0.21064545 -0.09263797 -0.06012059 0.04227074 -0.0026263783 0.035581507
0.20334563 -0.16689973 -0.37287727 -2.4685128 -0.35509205 -0.1403664 -0.045641433 0.044710793
0.15630369 0.13488032 -0.12108432 0.07896543 0.052742068 0.111114934 -0.09761037 0.002859627
00000000: ae5e 27b6 140d 37b5 5e01 1db6 943c 6834
00000010: 359f bcb6 c21f 18b6 0faf 36b6 626f b2b5
00000020: 695f a5b5 5233 d1b5 acbf d4b5 e4ef 5db6
00000030: 3cff 21b6 3b28 25b5 cbe5 30b5 ab10 15b6
00000040: 3cb8 8fb6 bed2 a9b5 d390 5cb4 2d91 67b6
00000050: da38 a2bd 0044 79bc 5447 353e 3f35 283b
00000060: e80a 7d3c 12a0 cc3c fa6f b63c 9511 98bc
00000070: 130b acbd 3877 1fbd ca5b a53d 93b9 6fbd
00000080: df15 583c 4119 05be 4c43 a43c f6f2 7cbc
00000090: acb8 88bc d97a 2cbc d529 c6bc 27e3 59bd
000000a0: dfea 9abe 611b 81be facc 0dbf 9bb3 823f
000000b0: 1063 a5be ae52 e73d 65e2 75bd 046b 703d
000000c0: fdf2 263e 9494 043d f687 54be 99a8 e53e
000000d0: ea15 19bd 9eca 383e 1196 993d 7306 433d
000000e0: 98c3 3c3d b641 a13c 1537 b33e 51c9 ccbd
000000f0: 5e8f 9abd 8f1d f23b 65fd e83e 8df3 243f
00000100: cc01 063e 0e4a 483e 6c74 b63c 1271 103e
00000110: 7c68 6abc cf80 3c3d 167d 803e c2dc 5dbe
00000120: 1427 353e edf3 2cbe acb0 7b3e d411 a1bd
00000130: 278d 55bd ecdb 603d 17ad 3d3c 9639 9f3d
00000140: 6e51 39bd cebb f2bb 378f b5bd 14c2 083b
00000150: e07c 22ba eaec 18bd 4c03 aebc 4f33 3dbb
00000160: 6362 4cbc c096 96b5 c8cf 98bc fdb4 9f3d
00000170: 96a2 a6bc 985c 30bc 53de 7abb ebb6 b63c
00000180: 6a92 ef3b 372f dfbc 4bf4 493c e6e3 25bd
00000190: 760d 3dba 7175 6339 2d37 4fbb f170 1c3a
000001a0: 67f1 a13a dd96 1dbb 9b9f 7ebb 5bb8 31ba
000001b0: ca2e 90bb 1f7e 7aba 8dfd 79bb d8db 1eb9
000001c0: a95b 59bb 4fb5 a2ba bcd5 2bba cad6 87bb
000001d0: 111a a33a f78c 9ebb 3df1 5939 e230 7ebb
000001e0: d5d2 08be 48bd 993e 8a49 163f 9346 2c40
000001f0: 8be3 c13e c52b 8f3e 37c4 393e f2e7 2f3d
00000200: 4c5b 2ebc 493a 033d 8c9e 413d b1e5 753e
00000210: 28ac 613d c357 963d e553 453d d008 763e
00000220: ca5b ce3c 2e34 7d3c 8f92 c43b 2b05 943c
00000230: 2514 c4bf e4ec 563e 57eb 7fbe 8f3d 91bf
00000240: fc85 a6bc e880 b3be 11de 593c cb68 113e
00000250: ead7 f43d c3de 2a3e 8831 0dbe 31e3 043d
00000260: 4365 453e a4cb 133e 9de7 033d 48e2 1a3d
00000270: b2d5 173e a8a6 f03d 2305 fd3d 99b0 623d
00000280: d45a bcbe 3de8 803e abf0 8dbe 68ab 4a3f
00000290: a419 8d3d c0d0 bcbe 7bc4 10bd 7586 c93d
000002a0: cdd0 413d 15af 733e 414c 90be 6067 ca3e
000002b0: 3d38 1ebe 333f ea3e ece9 0abe a734 413c
000002c0: e75a 453e 0381 c33d 4917 75be 20c6 823e
000002d0: 07fd 64be 4c37 a5bd 8102 1cbe 14a6 873d
000002e0: 4898 473c 5731 8cbd 4e26 dabb a9d1 88bd
000002f0: 2147 b5bd d967 9e3d 09c6 bdbd d71f 183e
00000300: 4d1c 8ebd 8227 453d 17cd 99bc 03fd 863d
00000310: 28ee 3e3d ff14 49bd f845 143d f6de 58bd
00000320: 4e70 cc3d a95f 973d ec41 ecbe 89dc 8bbf
00000330: f629 f5bd 89bf 72be a3fb d43d 8bd7 0b3e
00000340: 8df5 36bd eb2a 113e e79e 89be 6d80 4c3e
00000350: 07cf 893d e637 cf3e 7f2f 8abe 0fb9 493e
00000360: 688d 6c3e 3225 0a3e 956b 923e 0673 573e
00000370: 0b1d 9dbd bc22 37bc 5a56 d63e ca8c d13e
00000380: 31ca f93d 5c50 2d3e a265 3b3c 0c7b c43d
00000390: e376 38bd 3d59 2a3d ed97 833e 28aa 68be
000003a0: ebae 1b3e 6a27 3ebe 71b3 573e fab8 bdbd
000003b0: 0241 76bd 1524 2d3d 511f 2cbb eabd 113d
000003c0: d639 503e c3e7 2abe c5e9 bebe 1dfc 1dc0
000003d0: a0ce b5be 36bc 0fbe 83f2 3abd aa22 373d
000003e0: 130e 203e 111e 0a3e 0efb f7bd a1b8 a13d
000003f0: 1108 583d 3a90 e33d f2e7 c7bd 9468 3b3b

bias f4 [18]
-5.893192e-06 -0.031826366 0.15512744 -0.0049291947 0.0008109131 -0.0048743314 -0.00365829 0.28178114
0.13080288 -0.0046717427 0.2889872 0.035736937 0.2177402 0.1818075 0.113797925 -8.391387e-05
-0.00042070186 0.19005041
00000000: 22be c5b6 5d5c 02bd bad9 1e3e 1585 a1bb
00000010: 7593 543a dbb8 9fbb ecbf 6fbb 9e45 903e
00000020: 31f1 053e 6b15 99bb 21f6 933e e560 123d
00000030: 49f7 5e3e bf2b 3a3e e30e e93d eafa afb8
00000040: a691 dcb9 939c 423e

weight f4 [9, 18]
1.385225e-07 -0.0019985647 0.0013208326 -0.105764575 0.010466421 2.105609e-05 -0.17501782 0.01076256
0.054978535 0.019699167 0.16417655 -0.083541 0.1104831 -0.0040011043 0.081508495 2.3929067e-07
7.060394e-06 0.0790258 7.282303e-06 -0.025217758 0.541788 0.14792137 0.061085798 0.025257457
0.85188586 -0.85559464 0.36254826 0.08817867 -0.29899758 0.11928474 -0.7628104 -0.47019812
-0.3256529 -0.001293409 0.0021160925 0.10565476 -4.2751708e-08 0.0024858995 -0.04845014 -0.18159953
0.043556426 0.0010078287 -0.33495435 0.10623174 0.15038754 0.036994 0.34990942 -0.14937364
0.26982802 0.048938364 0.16244617 2.3189962e-06 4.387554e-05 0.20598328 6.863347e-09 -2.7421982e-05
0.00018760879 -0.0017784943 -2.060352e-06 2.6891064e-06 -0.00055377977 3.1393418e-05 -4.7767033e-05 7.2476796e-06
-0.00018532909 -0.0011131545 -5.2484633e-05 0.00030028808 -0.00015022521 1.06944654e-07 5.428292e-07 -0.00013249504
1.16735265e-07 -0.004847592 -0.016599832 -0.122510836 0.04930508 0.0013480515 -0.31464046 0.04342418
0.09874492 0.034678802 0.29934815 -0.092321806 0.31290537 0.023839392 0.16643457 1.3572416e-06
3.8571226e-05 0.16613165 -2.4750086e-06 0.07560789 0.2735228 0.2160916 -0.038160115 -0.0048190276
0.60373294 -0.60834247 0.32573006 0.012204093 -0.25609162 0.20427024 -0.6594804 -0.51586634
-0.13533191 -0.00046494484 -0.00051589386 0.05918864 -2.3040758e-07 0.00053648895 -0.0373347 -0.17016144
0.025692802 0.00037331475 -0.24313226 0.14898928 0.21099555 0.028045462 0.32075396 -0.17204857
0.22155476 0.09091058 0.1352447 1.2316095e-06 3.294046e-05 0.1876504 2.395223e-07 -0.008386826
-0.09350339 -0.2599227 0.11785349 0.0095084505 -0.5016832 0.22200859 0.13001885 0.07765458
0.52803737 -0.21059942 0.5825191 0.09088904 0.30773634 9.425348e-05 4.432738e-05 0.3334974
1.0739039e-05 0.0032602313 0.5842988 0.1676223 0.10173171 0.04121876 0.90550953 -0.8177817
0.349521 0.12592675 -0.2772695 0.07891674 -0.73508453 -0.41035166 -0.32403117 0.0016066768
0.003027449 -0.03672332
00000000: c6bc 1434 5afa 02bb ca1f ad3a 199b d8bd
00000010: 5a7b 2b3c 9ca1 b037 df37 33be 7355 303c
00000020: 2c31 613d 2660 a13c e61d 283e 8b17 abbd
00000030: f744 e23d b21b 83bb eded a63d dc77 8034
00000040: 53e8 ec36 47d8 a13d 825a f436 7995 cebc
00000050: 9eb2 0a3f b378 173e 1a35 7a3d bae8 ce3c
00000060: 3115 5a3f 4008 5bbf ed9f b93e 0597 b43d
00000070: 3616 99be 8f4b f43d 8b47 43bf cfbd f0be
00000080: fabb a6be 9b87 a9ba 24ae 0a3b 8661 d83d
00000090: 009e 37b3 79ea 223b a773 46bd 3af5 39be
000000a0: 3968 323d 1f19 843a 237f abbe 0790 d93d
000000b0: 31ff 193e 0587 173d 5427 b33e 67f5 18be
000000c0: e626 8a3e 9873 483d 4a58 263e 0da0 1b36
000000d0: 0107 3838 48ed 523e a3d2 eb31 4208 e6b7
000000e0: dab8 4439 5e1c e9ba 9444 0ab6 7f76 3436
000000f0: 882b 11ba 6dac 0338 7659 48b8 1831 f336
00000100: e654 42b9 44e7 91ba f222 5cb8 fc6f 9d39
00000110: c685 1db9 72a9 e533 f0b6 1135 5eee 0ab9
00000120: e4af fa33 8dd8 9ebb 5ffc 87bc f6e6 fabd
00000130: 20f4 493d 1ab1 b03a 8e18 a1be 8edd 313d
00000140: c73a ca3d 5c0b 0e3d 2944 993e 3713 bdbd
00000150: 2235 a03e d44a c33c d36d 2a3e 772a b635
00000160: 8ac7 2138 6a1e 2a3e 5318 26b6 4fd8 9a3d
00000170: 2e0b 8c3e 1e47 5d3e c84d 1cbd efe8 9dbb
00000180: 3e8e 1a3f 55bc 1bbf 17c6 a63e adf3 473c
00000190: 711e 83be 382c 513e b5d3 28bf d10f 04bf
000001a0: 7394 0abe d7c3 f3b9 0d3d 07ba ca6f 723d
000001b0: f465 77b4 2aa3 0c3a 45ec 18bd cd3e 2ebe
000001c0: b679 d23c 75b9 c339 aaf7 78be a590 183e
000001d0: 380f 583e 99bf e53c dd39 a43e 802d 30be
000001e0: 40df 623e 532f ba3d 967d 0a3e c84d a535
000001f0: 8d29 0a38 6d27 403e b297 8034 e668 09bc
00000200: b57e bfbd 9714 85be 2c5d f13d 55c9 1b3c
00000210: 4f6e 00bf 3856 633e a923 053e 5d09 9f3d
00000220: 752d 073f 60a7 57be f91f 153f 0824 ba3d
00000230: 9e8f 9d3e f4a9 c538 29ec 3938 2cc0 aa3e
00000240: d22b 3437 9ba9 553b 9b94 153f 2ea5 2b3e
00000250: b758 d03d 01d5 283d 79cf 673f 245a 51bf
00000260: 6bf4 b23e f1f2 003e 45f6 8dbe 1a9f a13d
00000270: 802e 3cbf 9d19 d2be 6ae7 a5be 2197 d23a
00000280: 2a68 463b 316b 16bd

bias f4 [9]
0.048991587 0.08070845 0.09950554 -0.0016467493 0.061355893 0.034796312 0.09825747 0.16473137
0.13108915
00000000: 67ab 483d 794a a53d 90c9 cb3d bdd7 d7ba
00000010: 5150 7b3d 9486 0e3d 363b c93d 57af 283e
00000020: 3c3c 063e

weight f4 [3, 9]
0.04147986 0.19938722 0.06328383 0.0035047166 0.009706508 0.32350448 0.095815144 -0.007394544
0.11067116 -0.004861183 0.09555323 0.009933303 0.00040419435 -0.022052787 0.29475927 0.05142286
-0.014208395 0.012540409 -0.12574573 1.129982 -0.27275556 -0.010963688 -0.29478458 0.568427
-0.22403568 -0.5167376 1.1658299
00000000: c9e6 293d 2a2c 4c3e f49a 813d 63af 653b
00000010: 0c08 1f3c 61a2 a53e bb3a c43d ee4d f2bb
00000020: 90a7 e23d 8f4a 9fbb 69b1 c33d 4bbf 223c
00000030: 0cea d339 0ca8 b4bc b0ea 963e c7a0 523d
00000040: 54ca 68bc 4a76 4d3c 7dc3 00be 40a3 903f
00000050: 9ea6 8bbe 0aa1 33bc 01ee 96be 6f84 113f
00000060: 9c69 65be ea48 04bf ea39 953f

bias f4 [3]
-0.45082915 -0.27843025 0.003293689
00000000: 14d3 e6be 698e 8ebe efda 573b

weight f4 [1, 3]
0.6658088 0.36956358 1.4422247
00000000: 7272 2a3f 7037 bd3e d29a b83f
