models/adult/ann_new_martin.pt (torch, 14248 bytes, 8 tensors)

weight f4 [18, 20]
00000000: 8e7f 423d 3e8e 17be 594f 96be e7fe 04c0
00000010: 4dae 11bc 4eee f3bd c69c cf3d 48f2 e33d
00000020: 0ca3 933d 2c29 0d3e 700f e43d 5126 883d
00000030: a2df 8d3d bfa8 863d 8bac c83c ad43 4f3e
00000040: 5636 c23c 2231 df3d 97e9 2b3e 0c5c ec3b
00000050: 8e00 f33d 55b1 533d b9f1 61be ece2 60bd
00000060: 18ff e23d 414f 36be 917f 27be 1b0b 71be
00000070: 3def 3cbe 5de0 73be 5c36 f7bb 0cbc a8bc
00000080: 404b 593c b035 f73c 7872 4a3e 807e 393e
00000090: d85d 9f3d a565 44be 2c1c c1bd 1705 41be
000000a0: a9ce a8bd d2ca cdbd 7602 9f3d ecd5 d9bf
000000b0: 6746 4f3e 3fbd 143d b184 bf3c 02fd 32be
000000c0: f4d8 2cbf f61d b83d b2cc ac3d 51ab e0bd
000000d0: 9811 133e 22d1 823e 962a c6be dc68 44bd
000000e0: 0de0 5c3e 0996 e9bd 3c5c 05bd 32ce c03d
000000f0: 5056 d93e 4ab8 c23e 0125 353f 0bdc d43f
00000100: 5d19 a03e 4699 b83e c26a f73e ba37 e93e
00000110: a762 0c3f 1ea3 a73e 5aef aa3e cb6a 933c
00000120: d56c 653e a270 903e d440 3d3e 124c 663e
00000130: fa82 253e 53f2 0c3f d328 0a3e a7e8 b73d
00000140: 1220 23be a971 03bd c0d5 9abe 1c83 01c0
00000150: f38b 06be dbdc 53bd 8d68 8d3e c1d5 323e
00000160: def6 f6bd 0f7b 383d dd8c a5bd 49dc 02be
00000170: e706 e63c e858 733d 2bc9 e43d aaee 943d
00000180: 71b3 023d 8bff 623e 15df 053e 78f2 423e
00000190: 9b24 963d fb03 493d 1806 d3be 1b87 1bc0
000001a0: 944f 4cbe db00 4c3d 99ff 6d3c b312 af3c
000001b0: 8ea3 e8bd c484 ab3d 521b 3e3d ef71 cbbd
000001c0: 099e b53d 10f1 193e e7b5 433e f8e9 473e
000001d0: 7fac 163c 5018 513e d36b 673e 71ea 643e
000001e0: 2201 f6be 63d0 1d3e 8b47 c9bd 08cd d4bf
000001f0: 1194 2cbc 219a c8bd ba7b ccbc ff80 c63d
00000200: 5ac0 c0be 9220 623e ad3b e5bc ddaa fcbd
00000210: f621 63be 5bf2 2b3e 292f 78bb af90 edbc
00000220: a20e e33d 7b8c 64be 3ecf a33d 8fcd 843e
00000230: 6821 cbbd 70d3 103e d14b e7be 2d9e e2bf
00000240: 2914 f4bd 0a4a b2be 0d27 e3bd 0272 4e3d
00000250: 7442 67bd 99d0 d63d 126a 783e 3d4e 283d
00000260: 644a 6abd 7a71 f2bd bf26 643e 1a75 7a3e
00000270: a855 323d 443a 383d ccff 3b3e a85d 573c
00000280: 5461 cbbd ff11 da3d 4bef a8be c407 20c0
00000290: 07f8 bebe 2467 0abe cf77 583e 6271 5c3e
000002a0: 3fb8 483e bb17 5c3d b845 393d 7ba6 01bd
000002b0: a77f c73c 9211 d33d fcd8 4f3e 4d90 2f3e
000002c0: 79e4 d4bc 3718 1fbc ea99 e93c 50c6 f23d
000002d0: a134 28bd 0b15 83bc 54f6 f5be 2db6 eebf
000002e0: 9f2a 9a3c 3c54 72be 4d8f f93d 3eb3 443e
000002f0: c4f4 19be bdd8 123c e89c 703c 0f0a 103e
00000300: a1d2 c5bd 0019 80bd 43b5 323e 2fe9 523e
00000310: af74 843d 4b39 973b 2b35 703e 140c 523e
00000320: 9efd 24be 29dd 19be 9f5b 14be aca4 27be
00000330: c163 7f3d a51f 3bbe b13b 073d 01c6 62bd
00000340: 6c34 5cbd 62ca 023e 0e80 61be d658 5fbe
00000350: 42c0 35be f709 e83d 9c94 41bd 062e a3bd
00000360: 30f5 2b3e faee 57be fce5 05be e434 cfbc
00000370: b9f7 a93d 7aba 673e 25f1 d4bd 45c4 e4bf
00000380: 72a2 5a3e f7d7 aa3d b81e 49bd b647 ca3c
00000390: eda1 8cbe d21d 673e b8fa 833d 6272 603e
000003a0: 6a3a 08be a5d2 3c3e 8690 3f3d 9e37 57be
000003b0: 343f 803e b069 74be a0a4 9dbd 4c7c d83d
000003c0: ca8f 483e 411a 9c3e bb6f c43e e5cf 1540
000003d0: f090 703e 2d62 c93e 26f7 22bd 8c86 c13b
000003e0: 12b5 663e fb8d 9fbd 93c9 aabd e83f 1cbe
000003f0: 7db4 413e 2a44 373e e73b afbc f888 343e
0.047484927 -0.14800355 -0.29357412 -2.078058 -0.008891654 -0.119106874 0.10137324 0.11130196
0.07208833 0.13785237 0.11135757 0.06647933 0.0692742 0.065751545 0.024496337 0.2024066
0.02370755 0.10898043 0.16788326 0.0072131213 0.1186534 0.05168279 -0.22064866 -0.05490391
0.110838115 -0.1780367 -0.16357256 -0.23539393 -0.18450637 -0.23816057 -0.007544322 -0.02059748
0.01326257 0.030176967 0.19770229 0.18114662 0.07781571 -0.191794 -0.094292015 -0.18849598
-0.08242542 -0.100484505 0.07764141 -1.7018409 0.202417 0.03631329 0.023378702 -0.17479327
-0.67518544 0.089900896 0.0843748 -0.10970176 0.1436218 0.2555018 -0.38704365 -0.047951564
0.21569844 -0.1140557 -0.032558665 0.09414329 0.42448664 0.38031226 0.7075959 1.6629652
0.3126935 0.36054438 0.48323637 0.45550328 0.5483803 0.32741636 0.33385736 0.017995259
0.22404797 0.28210932 0.18481761 0.22489956 0.16163245 0.5505726 0.13492136 0.08979922
-0.15930203 -0.032090817 -0.30241203 -2.0236273 -0.13139324 -0.051724296 0.27618828 0.17464353
-0.12058805 0.045039233 -0.08083508 -0.12779345 0.028079463 0.05941096 0.11171182 0.07272084
0.03190941 0.22167794 0.1307338 0.19037807 0.07331201 0.04907606 -0.41215587 -2.4301212
-0.19952232 0.049805503 0.014526271 0.021371221 -0.113593206 0.083749324 0.046412773 -0.099338405
0.088680334 0.15033364 0.19112359 0.19522846 0.0091964 0.2041943 0.22599725 0.22355057
-0.4804774 0.15411524 -0.09828099 -1.662507 -0.010533349 -0.09795023 -0.024961341 0.09692573
-0.37646753 0.22082737 -0.027982557 -0.12337277 -0.22180924 0.1679167 -0.0037869907 -0.028999655
0.11086775 -0.22319214 0.07998513 0.2593808 -0.09918481 0.14143157 -0.4517503 -1.7704521
-0.11917908 -0.34822112 -0.11091433 0.050401695 -0.05645986 0.104890056 0.24259213 0.04109024
-0.05719985 -0.1183805 0.22280405 0.24458733 0.04353872 0.04497744 0.18359298 0.013144888
-0.09930673 0.10647964 -0.32995066 -2.500474 -0.37298605 -0.13515908 0.21139453 0.21527627
0.19601534 0.05373357 0.045232505 -0.03165291 0.024352862 0.10306086 0.20297617 0.1714489
-0.02598785 -0.009710363 0.028515775 0.11854231 -0.041065816 -0.016001245 -0.48039496 -1.8649346
0.018819151 -0.23664945 0.121855356 0.19209 -0.15034777 0.008962807 0.014685847 0.14066337
-0.09659315 -0.06254768 0.17451958 0.20596765 0.06467568 0.004614984 0.23457782 0.2051242
-0.16112372 -0.15025772 -0.14488076 -0.16371411 0.062350992 -0.1827379 0.03301591 -0.055364612
-0.05376093 0.12772515 -0.22021505 -0.21811232 -0.17749122 0.11330026 -0.047260866 -0.07967763
0.1679275 -0.21087256 -0.13076013 -0.025293775 0.082992025 0.22629729 -0.10397557 -1.7872397
0.2135103 0.08341973 -0.04910156 0.024692398 -0.2746729 0.2256997 0.06444305 0.21918634
-0.13303533 0.1843973 0.046768688 -0.2101731 0.2504822 -0.23868442 -0.07697415 0.10570583
0.19586101 0.3048878 0.38366494 2.3408139 0.2349279 0.39332715 -0.03978648 0.005905932
0.2253001 -0.077907525 -0.083392285 -0.15258753 0.18916507 0.17897096 -0.021390868 0.17630374

bias f4 [18]
00000000: 73f9 19bd 9622 213e de3a 1fbd f730 d63e
00000010: d68b 823d f8f6 bdbc c6fd e53d 760e 693e
00000020: 566d 623c 8008 123e 7d8f 50bd f1c5 f3bd
00000030: 7dd8 6abc 2303 83bd 5afb a2bd 7edc 7dbd
00000040: 9fbc 073e ff66 3abe
-0.03759141 0.1573585 -0.0388745 0.41834232 0.06374328 -0.023189053 0.11230044 0.22759423
0.013820013 0.14261055 -0.05091809 -0.11902989 -0.014333841 -0.06397083 -0.07958098 -0.061977856
0.13255547 -0.18203352

weight f4 [9, 18]
00000000: e017 b4bd 4ac2 963d d945 4b3e 3eee 2dbe
00000010: 7c2c 1c3d b22d 43be 002a 9a3a 0050 44bd
00000020: f1d4 4dbe 53b5 4ebe 1c09 0b3d 2079 363c
00000030: 437b 2e3e 5dff 47be 96b4 9c3d d4c4 4fbe
00000040: 3900 703e 4089 70bd 162e acbd 4bf6 2c3e
00000050: 15ae 9abd e2ba 8ebe 944e 15be cbb7 3abe
00000060: 6d9f 5f3d 18f9 293d 561c ccbd ca79 483e
00000070: e9aa 5a3e 99a8 cabd fd5c ec3d 810b d03d
00000080: 0592 4a3e f838 123e 150c 103e be44 0fbe
00000090: f9d3 1abd 2068 f3bc 9b1b 57be 73f2 153f
000000a0: 06b8 e9be 9954 a7be 7e56 f2be 4c68 1cbf
000000b0: f2ab a7be fd9b bbbe b3f9 52be 4317 0ebc
000000c0: 27e7 283f 1930 033f 8a5e 16be cfe4 2cbe
000000d0: 307a d4be c296 c73d 14a1 b13e 09a8 28be
000000e0: 93dd ff3e 7ca3 0e3e 4ece fa3e e07e 0e3f
000000f0: 38d3 9a3e 02d6 b03e 2993 953e 96e3 fb3d
00000100: 151b 23be 53aa ab3e 2199 9bbe dc64 1dbe
00000110: a5ee 56bc 90a8 a53e 86fe 4e3d 58d4 68be
00000120: c4d5 f5bb e21d e13d 1755 ad3c f064 b33a
00000130: 36e0 a73e 7d3d be3e 4da4 b63d 45c8 6c3e
00000140: 7453 f43e fa05 723d 2e0a 9bbc d51b 90bd
00000150: 9af2 0f3d 625d 29be 0a80 943d abc1 b63d
00000160: 2c45 093e 1afb 8cbd 420d a23e 5e08 bdbb
00000170: 19de 823e e7d6 c53d b063 e73e 86e7 bc3e
00000180: 0ff2 de3d 1907 bd3e 64fa 703e c73a dd3e
00000190: c4d7 dbbd 6d79 eb3e cb0d 36bd d7bb 9ebe
000001a0: e02e 883d 5409 3b3e 205b a43d 9da0 6f3e
000001b0: cded 8ebd b4f4 743d 7070 c63d 37cc 3bbe
000001c0: b5b9 41bc 429a 213d 5ad8 de3d ddf1 15be
000001d0: e8c5 253e 3b59 103e bbe8 5abd 8164 18bd
000001e0: 7e8c e13c 2781 3bbd 4132 113e ff74 ca3d
000001f0: 903f 64be 0272 fa3d e41e 2d3e 2417 433e
00000200: 7fd6 b43e bef0 a23d 779f 063f 980a 1f3e
00000210: a1ea 6d3e 1557 f33e 7b99 fc3e 507b 183e
00000220: b396 e1bd 6491 b93e 0f6b 52be d3ad 85be
00000230: e0d9 053b 553a db3e d32a c13e b1ee 033e
00000240: afb7 9bbd 1c55 20be aa06 8e3e 4322 8ebd
00000250: 7173 ba3d c2a6 e73d b255 df3e 3119 133e
00000260: 2ef4 613c 07f2 c63e 74a7 e7bd f323 893d
00000270: 2e65 17be 6e2a b8bc 612e 0fbd 3e85 b43e
00000280: 7888 6a3d 91bc 4fbe
-0.08793616 0.073612764 0.19850864 -0.16985413 0.03812836 -0.190604 0.0011761785 -0.047927856
-0.20100762 -0.20186357 0.033944234 0.011137277 0.17039208 -0.19531007 0.076516315 -0.20289928
0.23437585 -0.05872464 -0.08407228 0.16890828 -0.07552735 -0.27876955 -0.14580756 -0.18234174
0.0545954 0.04149732 -0.09966342 0.19577709 0.2135426 -0.09895439 0.115411736 0.10158444
0.19782265 0.14279544 0.14067109 -0.13991067 -0.03779981 -0.029712737 -0.21006624 0.58573073
-0.4564821 -0.3268173 -0.47331613 -0.61096644 -0.3274837 -0.36642447 -0.20603065 -0.008672538
0.6597771 0.51245266 -0.14684501 -0.16884159 -0.41499472 0.09745552 0.34693205 -0.1647035
0.49973735 0.13929552 0.48985523 0.55662346 0.30239272 0.34538275 0.29213837 0.12299268
-0.159283 0.33528385 -0.30390266 -0.15370506 -0.013118421 0.32355165 0.0505357 -0.22737253
-0.0075022895 0.10992028 0.021158738 0.0013686698 0.32788247 0.37156287 0.08918057 0.23123272
0.4771992 0.05908773 -0.018925752 -0.070365585 0.035143472 -0.16539529 0.07250984 0.08923658
0.13405293 -0.06883831 0.3165074 -0.0057688197 0.25560072 0.0966013 0.45193243 0.36895388
0.10886013 0.36919478 0.23533016 0.43208906 -0.107345134 0.45991078 -0.044446748 -0.31002685
0.06649566 0.18265277 0.08025193 0.23401113 -0.06978951 0.05980368 0.096894145 -0.1833962
-0.011824061 0.039453752 0.108811095 -0.14643045 0.16188776 0.14096539 -0.053444605 -0.037205223
0.027532812 -0.045777466 0.14179327 0.098855965 -0.22289872 0.122287765 0.16906315 0.19051796
0.35319898 0.07956074 0.52587074 0.15531385 0.23234035 0.47527376 0.49335846 0.1489079
-0.11015072 0.36243737 -0.20548652 -0.2610918 0.0020424053 0.4281794 0.37727985 0.12884022
-0.07603394 -0.15657467 0.2773946 -0.06940129 0.0910405 0.113111034 0.43620068 0.14365079
0.013791127 0.38856527 -0.11311236 0.0669631 -0.1478469 -0.02248117 -0.03495634 0.35257906
0.057259053 -0.20286776

bias f4 [9]
00000000: e0f7 0ebd 30bd 343e 20dd 8f3e 17ca f7bd
00000010: 3235 283d ef96 d2bd d92a bcbd 4cdd 9f3d
00000020: fa57 a73d
-0.03490436 0.17650294 0.28098392 -0.120990925 0.041066356 -0.102826945 -0.0918786 0.07805881
0.08171077

weight f4 [3, 9]
00000000: 4474 8abe b0aa 8b3d eb7f 1e3f 96ad 1fbf
00000010: 2e34 b1bd 570a b2be 590a 703e 915a fabe
00000020: 98a4 b0be 6b3d 78be a68e 51be a2d1 223f
00000030: 182b d3be 9d4f dbbe e0b3 07bf b827 4ebe
00000040: 1682 05bf c69a 4dbd b02b 063e e6ba 55be
00000050: 38cd 58bd 2d04 863e 07f1 3bbe 1863 aabe
00000060: b010 99bd 77e0 873e 6665 5ebe
-0.2704183 0.068196654 0.6191394 -0.62374246 -0.086525306 -0.34773514 0.23441447 -0.48897222
-0.34500575 -0.24242179 -0.20464572 0.63601124 -0.41243815 -0.42834178 -0.5300884 -0.20132339
-0.5215162 -0.05019643 0.13102603 -0.20872077 -0.052930087 0.2617506 -0.18353663 -0.33278728
-0.07473886 0.2653844 -0.21718368

bias f4 [3]
00000000: 40c1 9e3e 85a2 8e3e 5721 60be
0.31006813 0.27858368 -0.21887718

weight f4 [2, 3]
00000000: 7057 84bf 8707 65bf 0ba8 01be ee2c 053f
00000010: 7062 ab3f 81d2 9e3e
-1.0339184 -0.8946461 -0.1266176 0.5202168 1.3389416 0.31019977

bias f4 [2]
00000000: c5c2 2640 e113 1ec0
2.6056378 -2.4699633
