models/adult/ann_old.pt (torch, 12721 bytes, 7 tensors)

weight f4 [18, 20]
00000000: d429 a0be a65f 5f3e 89f1 06be d9e7 79bf
00000010: 5f24 06bf b73e 21be 0943 da3e 1b49 f43d
00000020: d12b 573e 3481 7b3e 729f 26be 6ebb 683d
00000030: e925 a8bd f6ea 4c3e d1ff 403e f614 933e
00000040: ca28 c13e ff88 cd3d b176 be3e 23c3 c43e
00000050: b9ef 0c3e 9a37 08be c93d 353d 6af0 223d
00000060: 2880 39bc afb1 2dbe 1e86 8a3d c088 89bd
00000070: cc11 8fbe fb91 11be f636 293e db2f dc3d
00000080: 4e64 f6bd 7d5b 2fbd 5c63 57bd 4467 30be
00000090: d4fe 5b3d 1a84 dfbd bc34 243e dc4c 07be
000000a0: 79d1 7ebe 8024 dbbc 7640 a5be 735a 76bf
000000b0: 1c6d 41be b789 0e3e 903d b43e cd73 ea3d
000000c0: 5d94 ad3d 795b ab3e 67be 44be 74a2 833c
000000d0: 7134 cd3c b3f5 c63e d47e 2b3e d762 4d3d
000000e0: be71 e43e 966d e13e 4b6d cb3e 779c ca3e
000000f0: f230 a93e e84a 9b3e 7169 9d3e 8f73 4c3f
00000100: dbe2 ca3d e24f cf3e 070a e33e 7bdd 903e
00000110: a9c7 f13d 4ef7 103d e3e7 1cbd aaad e73e
00000120: c38b 353e b46d 3f3e bf51 6ebe 85ed c73e
00000130: be3e b03d 1da7 c63b 50cb cc3d d955 113e
00000140: db44 0cbd 77cb 483d 6e81 bbbe d03c a0bf
00000150: d08d 1dbe 1fbb 26be 406e fd3e bf39 c83e
00000160: b837 293e 28d4 0a3e 9d5c f4bd 4dcb 423e
00000170: 52a9 313e 55a3 8b3e 7ccb 023e b833 033e
00000180: 9edb 843e c844 f03e af2b 933e 4cc4 e53d
00000190: 27a7 73be faf7 893d cb42 bebe 072c aebf
000001a0: b73f e4be 1dc5 94be a131 b23e 49a1 aa3e
000001b0: adc6 113e b632 433e 0145 1fbe 2c03 c23e
000001c0: e161 5e3d a618 0d3e 6a9e 833e ebaa 0a3e
000001d0: 0c41 de3d 60a3 1a3e 9f22 993e 9378 3a3d
000001e0: fa7c 81bd 9611 5dbd c240 2d3e 28f7 b63d
000001f0: f61a 0b3e 29aa a43d 397b 1fbe 1e07 15be
00000200: ed9c 4cbe 957b 5ebe e803 02bd 3627 063e
00000210: 7366 42ba a4f5 79bd d3e3 f2bd fa0b 07be
00000220: fad4 163e 7609 61be 2c7f c53c 60f8 01be
00000230: 75aa e73e 32fe 0f3e 4d1a 033f 50be a93f
00000240: 6f2d 013f 78af e83e 87e1 173d 5db6 a33d
00000250: 5abd 1b3e c202 8f3e ced0 c83e d1aa 6d3e
00000260: 0865 be3d e07e 9a3d 3e56 813d 7eba 153e
00000270: d5e8 a03e 12a8 a73e 8cad 5b3e 89de 7c3e
00000280: 9144 533e e162 8a3e 2de1 193f 07e9 c03f
00000290: 3df3 093d b7b1 813e 8c35 10be e5dd 27be
000002a0: 21ad 49be c27d ffbd 4ef5 f83d 5b20 de3d
000002b0: 490d e7bd fbe0 0a3d 3753 bcbe c041 a63e
000002c0: e1f0 293e 6307 2a3e 855e c13c 5ba1 80bd
000002d0: b766 cf3e d667 d53e 8790 2d3f eeaf a63f
000002e0: 0044 203f aa66 0a3f c7fd 253e f24d 403e
000002f0: 6fe5 0dbd 076f 953d f496 b73e 4d7b b9be
00000300: 3184 333e 8c8a 25be 0b15 843e 1ff9 713d
00000310: 4073 41be 84fd b9bc 2bce 07be 9048 073e
00000320: 2dcd 6cbe 9ff7 a33e c8d9 85be bf60 96bf
00000330: b8bd d5bd 3cbb 42bd 09a4 943e 41f9 bf3e
00000340: 366a e93d 050e f23d c025 d0bd 1472 703e
00000350: 3be9 c43e 8775 003e 85db 183e d5c8 793d
00000360: 2013 0e3e ad66 b73e e0d5 aa3d 17aa 633e
00000370: 86cb 66be 190c 983e 8c21 febe df6f adbf
00000380: 591f a9be f876 f3bd 04ec ab3d 8fe9 9a3d
00000390: 8a8f b73d 35d9 913e 74ed 9abd d0a9 d43e
000003a0: 8f8f ae3e 4e53 ba3e 891c 91bd 232f c63e
000003b0: fa94 fc3e c34e bf3e 8beb 803e 8b45 d43e
000003c0: 90f4 b2be c385 4b3d 1450 02bf eecb 82bf
000003d0: e8a0 16bc ce58 d43c 00d4 223e 71dc 213e
000003e0: 1e7a 223e a502 b53d 4845 463d 6ffb 843e
000003f0: 6031 213e 8c25 ad3e 2369 19be 8518 0a3e
-0.31281912 0.2181383 -0.13178076 -0.97619396 -0.5239925 -0.1574658 0.4262927 0.11928006
0.21012808 0.24561006 -0.16271761 0.056819372 -0.08210356 0.20011505 0.18847586 0.2872693
0.37726432 0.100358956 0.3719993 0.38430128 0.13763322 -0.1330246 0.044248376 0.039780058
-0.011322059 -0.16962312 0.06763862 -0.06715536 -0.27943265 -0.14215843 0.16524872 0.10751315
-0.1203085 -0.04281186 -0.05258499 -0.17226893 0.05370982 -0.10913868 0.16035742 -0.13212913
-0.24884595 -0.026750803 -0.32275742 -0.96231765 -0.18889278 0.13919722 0.35203218 0.114478685
0.08475564 0.33468226 -0.19213258 0.016068675 0.02504942 0.3885933 0.167476 0.05014309
0.44618028 0.4402892 0.3973182 0.39572498 0.33045155 0.30330586 0.30744508 0.7986383
0.099065505 0.40490633 0.44343588 0.28293976 0.1180566 0.035392098 -0.038307082 0.45249683
0.17729096 0.18694192 -0.23273371 0.390484 0.08605717 0.006062402 0.09999716 0.14192905
-0.034245353 0.049022164 -0.36622185 -1.2518559 -0.15386128 -0.16282319 0.49498177 0.39106557
0.16525161 0.13557494 -0.11931727 0.19022866 0.17349747 0.2727305 0.12772936 0.12812698
0.25948805 0.46927476 0.28744265 0.11219081 -0.23794232 0.06736751 -0.37160334 -1.3607186
-0.4457986 -0.29056635 0.3480349 0.33326176 0.14235945 0.19062313 -0.15553667 0.37893045
0.054292563 0.13778934 0.25706798 0.13541763 0.108522505 0.15101385 0.29909226 0.045525145
-0.063226655 -0.05397185 0.16919234 0.0893386 0.13584504 0.08040268 -0.1557435 -0.14553496
-0.19981737 -0.2172683 -0.031742007 0.13100895 -0.0007415779 -0.061025277 -0.1185986 -0.13188162
0.14729682 -0.21976265 0.024108492 -0.12692404 0.45247236 0.14061812 0.51212007 1.3261204
0.5045995 0.45446372 0.037080314 0.079937674 0.1520895 0.27931792 0.39221805 0.23209693
0.09296614 0.07543731 0.063152775 0.14621922 0.31427637 0.32745415 0.21452922 0.24694265
0.20631625 0.27028564 0.60109216 1.5071114 0.033679236 0.25330898 -0.14082927 -0.1639324
-0.1969495 -0.12475158 0.12156163 0.10846015 -0.11281831 0.033905964 -0.36782238 0.32472038
0.16595794 0.1660438 0.02360464 -0.06280776 0.40508053 0.41680783 0.67798656 1.302244
0.6260376 0.540629 0.1621009 0.18779734 -0.034642633 0.072965674 0.35857356 -0.36226884
0.17530896 -0.16166133 0.25797305 0.05907547 -0.1889162 -0.022703893 -0.1326224 0.13211274
-0.23125143 0.32024857 -0.26142716 -1.1748275 -0.104365766 -0.047541842 0.290314 0.37494853
0.11397211 0.1181908 -0.1016345 0.23481017 0.3845919 0.12544833 0.1492749 0.060982544
0.13874483 0.35820523 0.08341575 0.22232853 -0.22538576 0.2969673 -0.4963497 -1.3549765
-0.3303173 -0.11887926 0.08394626 0.07564079 0.08962925 0.28486028 -0.07564822 0.41535807
0.34093902 0.3639168 -0.07085521 0.38707837 0.4933241 0.37364778 0.25179705 0.41459307
-0.3495221 0.049688112 -0.5090344 -1.0218484 -0.0091936365 0.025921252 0.15901184 0.15806748
0.15866897 0.08838395 0.048405915 0.2597308 0.15741491 0.33817708 -0.14981513 0.13485916

bias f4 [18]
00000000: 734f 5e3e b956 1dbe 8335 bc3e 678c 983e
00000010: c7af b23e 8399 ef3e f194 f2bd d6c8 793e
00000020: 4626 143e 9ee4 1abb 4e6d 923e b30a 8d3e
00000030: dde7 133e 03ce ddbd b40e a23e 30ae e63e
00000040: caec d73e fc26 443e
0.21709995 -0.15365113 0.36759576 0.29794618 0.34899732 0.46796808 -0.118448146 0.24393019
0.14467725 -0.0023634802 0.28599018 0.27547225 0.14443918 -0.10830309 0.31651843 0.4505477
0.42172843 0.19155496

weight f4 [9, 18]
00000000: c2b2 c5bc da85 8fbd bdf6 a83d cd93 8f3e
00000010: c000 13be 8f4b b4bb 6815 953c f27b 893c
00000020: 85e0 233f 622d f13e ffcb 4e3d 0f58 27be
00000030: 8b80 adbe d009 42bd d9fd 9f3e 0577 22bb
00000040: 2dbf e5bd df5b cdbe 1101 283e 6c2f 3fbe
00000050: 68f7 c33e b724 443e 717e 053f 1c98 bf3e
00000060: 5414 30bc df81 f43d 8a43 38bf b483 bbbe
00000070: a0c0 4c3d 74ee bc3e 04e3 753d 58eb fabc
00000080: 5966 163c e9aa 163d cff1 8d3e c05a 6e3e
00000090: 2143 dcbd 8cb7 9c3c 3095 d7bd 63f8 733e
000000a0: cba2 88be 0774 72be 3b50 dbbc afd4 ca3e
000000b0: e04e 3d3f 6165 093f 745e 0bbe f2d9 62be
000000c0: d983 b9be 4225 debd 34fc 8d3e 27ee 8e3d
000000d0: d3b1 13be 5993 26be 0fff a03e 6f09 1d3d
000000e0: b785 7b3e 8428 863e bf43 d33e 5e28 193f
000000f0: 3de9 1abe cdfc 533e 1439 1bbf 5e8b d6be
00000100: 2e8c 043f b280 bd3e 15fe f63e f821 d9bc
00000110: 593f bb3e b6fe be3e 5826 f83e 6f0f 0b3f
00000120: 0bc3 0bbe b3f8 29be e40b 12be b2b0 a03e
00000130: d5ef 1bbe 160e b8be 5ca0 963d 5756 f13e
00000140: ca57 253f fc9a 143f a346 4dbd 67e7 aabe
00000150: 708d aebd 72a0 a73d 71f9 763e f207 cbbc
00000160: b975 223e 0b48 08bf f9a2 c33e 5396 633e
00000170: ffbc 193f ab62 9e3e d8eb da3e 52c6 f63e
00000180: fd89 093e 7044 c93d e513 d0be f4ec 10bf
00000190: 344f 253f 409c 063f 73cd af3e 030d 3c3e
000001a0: 86d8 413e ff4c e13e d8e0 953e e96e 003f
000001b0: 0d94 603d dabc 3c3e 0e9d a13d 369f 293e
000001c0: 1c71 9dbe 3b73 b6be a3d4 e23d 4ad4 da3e
000001d0: e732 0b3f 5ab2 ee3e 6a29 e93b 4011 a4bb
000001e0: 8551 7a3c 8de3 2c3e b5ca 833e 652a a4bd
000001f0: 2f27 e0bd fedb 5abe c99b 1a3e cc6e f9bd
00000200: e006 a33d 7429 16bd 7068 6dbe 875c 4dbe
00000210: 20ab 8abc d230 ebbd d6ea 3cbe 03f0 a73d
00000220: c92b c0bd 9e35 80be 93ee 25be 3771 073e
00000230: a8c3 ecbd bcb4 533e 7c7e 0ebd c6b2 bf3d
00000240: c426 1cbb 7ae2 b0bb 48cf adbc 1688 dabd
00000250: bc29 b03d 1e80 70be e6d3 923c f402 22bd
00000260: 590c dbbc a9fd 6d3d 3888 1e3e 5a56 fabc
00000270: f5b4 60be 7c68 01bd 34c5 77be e44a 81be
00000280: b06b c13d 22a2 453e
-0.02413309 -0.07007952 0.082501866 0.2804245 -0.14355755 -0.0055021713 0.018198684 0.016782735
0.64014465 0.47104937 0.050487515 -0.16342185 -0.33887133 -0.04737264 0.31248358 -0.002479018
-0.112181045 -0.40109155 0.16406657 -0.18670434 0.38274693 0.1915463 0.5214606 0.37420738
-0.010747034 0.119388334 -0.71978056 -0.3662392 0.04998839 0.36900675 0.060030952 -0.030629799
0.009179675 0.036784086 0.27723548 0.23276806 -0.10754991 0.01913049 -0.10526502 0.23825221
-0.266867 -0.23677073 -0.026771655 0.3961539 0.7394848 0.53670317 -0.1361025 -0.22153452
-0.36233404 -0.1084695 0.27731478 0.06979018 -0.14423303 -0.16267146 0.31444594 0.038339075
0.24562727 0.26202786 0.41262624 0.5982722 -0.15128036 0.20701905 -0.6063397 -0.41903204
0.517764 0.3701225 0.48240724 -0.026505455 0.36571768 0.37303704 0.48466754 0.54320425
-0.13648622 -0.16598777 -0.14262348 0.31384808 -0.15228207 -0.35948247 0.07354805 0.47136185
0.6458708 0.5804899 -0.050116193 -0.3337967 -0.08523071 0.081848994 0.24118592 -0.024784062
0.1586522 -0.5323493 0.38210276 0.22225313 0.6005401 0.30934653 0.4275806 0.4819818
0.13431545 0.098275065 -0.40640178 -0.5661156 0.6457398 0.5258217 0.34336433 0.18364339
0.18930253 0.44004056 0.29273105 0.50169235 0.054828692 0.18431416 0.07891284 0.1656464
-0.30750358 -0.3563479 0.110757135 0.4274009 0.54374546 0.46620446 0.0071155326 -0.005006939
0.015278225 0.16883679 0.2574059 -0.080158986 -0.10944974 -0.21372983 0.1509849 -0.12179336
0.07960296 -0.036660627 -0.23184371 -0.20054828 -0.016927302 -0.11483921 -0.18448958 0.082000755
-0.09383351 -0.25040907 -0.1620429 0.13226782 -0.11560756 0.20674413 -0.034788594 0.0936027
-0.0023826817 -0.005398092 -0.021217003 -0.106704876 0.0860171 -0.23486373 0.017923307 -0.039553598
-0.026739286 0.058103237 0.15481651 -0.030558754 -0.2194403 -0.031593785 -0.24196321 -0.2525245
0.09444368 0.1930013

bias f4 [9]
00000000: 562d 09be a930 983e 6c2b 593d 3a71 c43d
00000010: 5612 3e3d 0f3b 6e3e c5f7 b8bd 82d9 59be
00000020: fc64 0a3e
-0.133962 0.29724625 0.053019926 0.09591909 0.046404205 0.23264717 -0.09031633 -0.21274379
0.13515085

weight f4 [3, 9]
00000000: 754a eabe f475 b23e eaf0 4abf c0ef 153f
00000010: 5049 3bbf 3980 193f 5542 e8be 7833 6c3e
00000020: 8eb2 9ebe 2d6c ce3e 97af 5dbe ed6b 123e
00000030: 9634 e8bd 6c6c de3e 89a4 633d ac8e 023f
00000040: 8c3a 0c3e 1c5c 9c3e 0487 a3be e56c 01bd
00000050: e0c0 1e3e 992d 703d 4fde dbbd 7d65 48be
00000060: bb67 78be 8a3a cf3c 7fbb a1be
-0.4575993 0.34855616 -0.79273856 0.58568954 -0.7315874 0.5996128 -0.45363107 0.23066509
-0.309956 0.40316907 -0.21649013 0.14298983 -0.11338155 0.43442094 0.055576835 0.5099895
0.13694209 0.30539024 -0.31938946 -0.03159799 0.15503263 0.058637235 -0.107357614 -0.19569965
-0.2425832 0.025296468 -0.3158836

bias f4 [3]
00000000: 908b f33e 02e8 4c3e f0d1 ca3d
0.47567415 0.20010379 0.09903324

weight f4 [1, 3]
00000000: 8a29 efbe 3c08 1b3f 395e 0e3d
-0.4671138 0.6055944 0.034757826
