models/adult/linear.pt (torch, 7687 bytes, 4 tensors)

weight f4 [2, 20]
00000000: 4e51 f8be 8fba 4bbe b15c 64bf fbea 2dc0
00000010: 299a f2be a201 edbe 4c1b 7a3e df75 b03b
00000020: 578c 98be 1a17 1b3e 9573 f3bc d7ee 1f3e
00000030: 2f24 a2bc ac93 02be e95e e73d b28e b53e
00000040: badb c43e adf8 473e b5dd c93e c98e df3e
00000050: be56 933e 9f2b 143e c54b 4f3f 198b 2d40
00000060: 814d e93e 3aa6 fc3e d737 93bd 57f1 86be
00000070: 4572 7d3e efcf 59be 0802 10be 6516 bdbd
00000080: 1b2e 20be e182 4bbc c9c0 9bbe a031 25bd
00000090: 6b08 0dbe 73d9 0cbe 49a6 48be 490c 98bd
-0.4849953 -0.19895385 -0.89203936 -2.717467 -0.4738324 -0.46290308 0.24424475 0.005385145
-0.2979457 0.15145531 -0.0297182 0.15618454 -0.019792644 -0.12751645 0.112973996 0.3546043
0.38448888 0.19528456 0.39426962 0.43663624 0.28777117 0.14469765 0.8097499 2.7116148
0.45566943 0.4934557 -0.07188385 -0.26356003 0.24750622 -0.21270727 -0.14063275 -0.09232787
-0.15642588 -0.012421341 -0.3042052 -0.04033053 -0.13772742 -0.13754825 -0.19594683 -0.07424218

bias f4 [2]
00000000: 6054 983e 5f90 07be
0.29751873 -0.13238667

weight f4 [2, 2]
00000000: f2fd a53f 153b e5bf 2711 e7bf be66 bc3f
1.2968123 -1.7908655 -1.805211 1.4718854

bias f4 [2]
00000000: 1ea7 663f c9bb 613d
0.9009875 0.055110727
