models/adult/linear.pt (torch, 5534 bytes, 2 tensors)

weight f4 [2, 20]
000000 88 64 64 bf b6 b2 cb be c7 c7 0e c0 de 0d 5f c0
       -0.892159 -0.39784783 -2.2309434 -3.4852214
000010 ef a6 a0 bf 25 97 b7 bf 0f 9f ab 3e 33 e5 c1 3e
       -1.2550944 -1.4343001 0.3351979 0.37870178
000020 15 30 1b bf e2 0a 4e 3f 83 92 aa 3e 94 a3 16 3f
       -0.6062024 0.80485356 0.33314905 0.5884335
000030 0c 71 6d 3e 17 58 f1 3c 8a 74 0f 3f b7 b3 19 3f
       0.23187655 0.02946095 0.560372 0.6003985
000040 b4 cc 19 3f d3 7b a2 3e 0b 11 1d 3f d3 18 1e 3f
       0.6007798 0.31735095 0.6135413 0.6175663
000050 c6 0b 84 3f a2 79 9a 3e d7 2a 09 40 fa 7e 53 40
       1.0316093 0.30170923 2.1432397 3.304625
000060 2a 4f a5 3f dc c8 a7 3f a9 82 e9 be d3 31 b3 be
       1.2914784 1.3108172 -0.45607498 -0.3499895
000070 a8 06 da 3e c3 2c 6f bf f2 9d dd be 58 9f 28 bf
       0.42583203 -0.93427676 -0.43284565 -0.6586814
000080 b8 e9 e5 be 6c f2 01 3d 91 e3 2f bf dd a9 cd be
       -0.44904876 0.031725332 -0.68706614 -0.40168658
000090 1c a8 12 bf e4 8c 8a be 4a 1c 1a bf 35 61 b9 be
       -0.57287765 -0.27060616 -0.60199416 -0.36206976

bias f4 [2]
000000 ae 9c aa 3e 4a 51 37 bf
       0.33322662 -0.7160841
