models/adult/linear.pt (torch, 1921 bytes, 2 tensors)

weight f4 [2, 13]
00000000: 8349 30bf 9963 bebd a3f5 dabf 9a23 52c0
00000010: b6ca 95bf aca1 82bf 7081 c1bc 0bae 8f3f
00000020: ace2 303e f914 7f3d 8b0f 683d 73db 1fbd
00000030: aa09 c83c 9de2 233f 1da8 31be 8a25 fc3f
00000040: 44bb 6c40 39fb a63f 4761 7f3f d2c0 0bbe
00000050: 8c86 9ebf 9130 d7be b76b 133d 0fae cb3d
00000060: b989 5abb e425 c7bd
-0.6886217 -0.092963405 -1.7106212 -3.283423 -1.1702487 -1.0205588 -0.02362129 1.1224989
0.17273968 0.06227586 0.056655448 -0.039027642 0.02441867 0.6401766 -0.17349286 1.9698956
3.6989298 1.3045417 0.9975781 -0.13647774 -1.238481 -0.4202924 0.035991397 0.099453084
-0.003334625 -0.09724024

bias f4 [2]
00000000: 622d dc3f 61b8 e6bf
1.720135 -1.8025018
