models/give_me_some_credit/ann.pt (torch, 5687 bytes, 8 tensors)

weight f4 [18, 10]
000000 7c c0 f6 3c 1c e8 10 3e 77 35 31 be 9b 17 34 be
       0.03012108 0.14151043 -0.17305551 -0.1758713
000010 31 f5 6d be 27 ed 76 3e e4 a2 64 be 50 d7 a1 be
       -0.23238064 0.24113904 -0.22327763 -0.31609583
000020 c7 27 a1 be ca 47 57 3e ec 28 aa be 85 a4 94 3d
       -0.3147566 0.21023479 -0.33234346 0.07257942
000030 e4 87 39 3e 53 51 a0 be 3e 5c 42 3e 95 44 25 be
       0.18118244 -0.31312045 0.189805 -0.16139443
000040 64 a1 8e 3e 58 70 6d be 9b 14 96 be 02 95 30 be
       0.27857506 -0.23187387 -0.29312596 -0.17244342
000050 e1 bb 23 3d 9a 40 9d 3e a1 1a 7c be 3d a0 ae 3c
       0.039974097 0.3071335 -0.24619533 0.021316642
000060 0d c6 2d be 81 fd 95 3e 08 55 f9 bd 5b c2 56 3e
       -0.16970082 0.2929497 -0.121744215 0.20972578
000070 1b 12 7b 3b 0a 48 c9 bd 59 29 cb 3d 4e 9e ca bd
       0.0038310352 -0.098281935 0.09919996 -0.098934755
000080 47 98 1b 3e b7 de 46 3e 90 3a 2e be 96 a5 11 bd
       0.15194808 0.19420896 -0.17014527 -0.035558306
000090 74 f1 3d 3e df 61 0a 3e 7c d9 8c be 7e 2e 59 be
       0.18549138 0.13513897 -0.27509677 -0.21209142
0000a0 7e fd 95 3e 92 96 aa be f5 54 5b 3d d2 96 45 3d
       0.29294962 -0.33318 0.05354782 0.048239537
0000b0 59 d0 6b 3c 8f e3 81 3e 65 a0 50 3d 69 9a 9b be
       0.014392936 0.25368926 0.050934214 -0.30391243
0000c0 cf 6c 16 3e 1f b0 b7 bd 39 83 2b be 79 4d 9e bc
       0.14689945 -0.08969139 -0.16749276 -0.019324051
0000d0 22 3d 11 bb 71 e8 db 3d 21 70 6e 3e f1 8b 88 be
       -0.0022161682 0.10737694 0.23284961 -0.26669267
0000e0 7e df 90 3b 13 6d 06 be 86 f1 c3 bd 60 a2 58 bc
       0.0044211736 -0.13127546 -0.09567551 -0.013222307
0000f0 e5 b5 a0 3d 61 0f 16 3d b8 67 9a be 61 de bc 3d
       0.07847194 0.03663576 -0.30157256 0.09222103
000100 e4 e9 59 3e 47 c8 26 3e 1f 6c 22 be 4d e3 b8 bd
       0.21280628 0.16287337 -0.15861557 -0.09027729
000110 f3 d5 8d 3d 85 85 9b be f0 d3 58 3e 2e 0d 5b be
       0.06925573 -0.30375305 0.21174598 -0.21391746
000120 a7 ee 45 3d 7c 8e c7 3d dc 3f 97 3e 08 fa ab be
       0.0483233 0.097439736 0.29540908 -0.33589196
000130 10 8b 76 3e b3 aa 6c 3d 38 a0 66 be ba b4 62 be
       0.24076486 0.05777998 -0.22522056 -0.22139254
000140 14 e5 6f 3e 3e 46 ab 3d 82 c8 99 3b b9 00 e2 3c
       0.2342723 0.08363007 0.004693092 0.027588235
000150 f7 3b 55 be 0f 9c fb bd 72 a5 27 be 98 3f 87 3e
       -0.20823656 -0.12285625 -0.16371706 0.26415706
000160 0b e6 0b be a0 a9 01 3e e8 f1 95 3e 25 01 31 be
       -0.13661973 0.12662363 0.29286122 -0.17285593
000170 85 0e 91 3e a4 39 07 be fa 13 39 be 48 cc 80 3d
       0.2833139 -0.13205582 -0.18074027 0.062889636
000180 cb ea 9d bc ac 93 cb bc 0c 8f 60 be a3 80 75 3e
       -0.019276997 -0.024850689 -0.21929568 0.23974852
000190 5f 9f 84 be 2f bd be bd 61 f8 08 3d 92 48 a7 3d
       -0.2590284 -0.09313428 0.033439998 0.081681386
0001a0 48 75 ed bd ee 94 81 3e 54 79 bb bd ae 2c 39 3e
       -0.11594635 0.25308937 -0.09154001 0.1808345
0001b0 4a 33 33 3e 8d a9 15 3e ac 01 69 be 22 51 ce 3c
       0.17500034 0.1461546 -0.22754544 0.025185172
0001c0 d6 a7 7e 3e b2 2d 9d be c1 85 89 be 5e 98 41 bc
       0.24868712 -0.30698925 -0.2685986 -0.011816112
0001d0 2f 37 2b be fe 2f c1 3c 2b 55 77 3e 88 14 93 3d
       -0.1672027 0.023582455 0.24153583 0.071816504
0001e0 fe 6d 51 bd fe 90 10 be 98 5f 16 bd da af 6a bd
       -0.051130287 -0.1411781 -0.03671226 -0.05729661
0001f0 53 51 10 bd 80 c2 86 be 1b 7c 3b bd 31 12 9c be
       -0.035233807 -0.26320267 -0.045772653 -0.3048263
000200 38 f3 67 be 88 15 42 bd 2a c6 74 3e 27 63 6c bc
       -0.22651374 -0.047383815 0.23903719 -0.014427937
000210 9a fd e0 3b e2 cb a9 3e 27 f7 2d be e0 c5 71 be
       0.006866169 0.33163363 -0.16988812 -0.2361064
000220 27 b1 a9 3e 74 ed 80 be 47 0a 9d bd b2 43 27 be
       0.3314297 -0.25181162 -0.07667976 -0.16334417
000230 1e a9 66 3d e0 d0 95 bd 48 98 48 3e 2e d3 83 bd
       0.056313626 -0.0731523 0.1958934 -0.06436764
000240 b2 9a 0a be 47 ad 86 3e 54 61 a5 be 43 19 95 3e
       -0.13535574 0.26304075 -0.32300818 0.29120836
000250 f9 6c f2 bd 54 c8 50 3e 6a 46 7a 3e 9c 8c f9 bd
       -0.11837191 0.20388919 0.24440923 -0.12185022
000260 e4 fb b7 3d c5 97 9e bd 11 4d b5 bd 54 1f 6d be
       0.08983591 -0.077437915 -0.0885259 -0.23156482
000270 9d e5 0b 3e 3c 70 16 bd f7 87 51 be 5e a6 7d 3e
       0.1366181 -0.03672813 -0.20462023 0.24770495
000280 e9 80 61 3e c9 d3 97 be ef 5d 80 3e 86 63 98 be
       0.22021832 -0.29653767 0.25071666 -0.2976343
000290 30 e6 87 be 82 5e 9c be 07 46 a0 3e 4f 94 24 be
       -0.26542807 -0.30540854 0.31303427 -0.160722
0002a0 bb cd f2 ba 7a 90 34 be 12 52 a1 bd 02 fb 0e 3e
       -0.0018524447 -0.17633238 -0.07876982 0.1396294
0002b0 00 de 87 3e d4 75 f4 bd d4 1b 4f 3e c8 2d c9 bc
       0.2653656 -0.119365364 0.2022546 -0.024557963
0002c0 f3 4a 0a 3e 1a c8 5c 3e f3 40 6c bd 6f 76 9f 3e
       0.13505153 0.21560708 -0.057679128 0.31145045

bias f4 [18]
000000 fb 29 d6 bd 06 3b 4e 3d 19 23 b2 3d 41 81 9e be
       -0.10457226 0.050349258 0.086981006 -0.30957988
000010 4c 17 b2 bd 79 81 4c 3e f9 35 0f 3e 7e 41 12 bd
       -0.0869585 0.19971265 0.13985433 -0.03570699
000020 0c 7c 23 be 05 ab a2 bc f3 74 4a 3e a1 59 0f be
       -0.15965289 -0.01985694 0.19771175 -0.13999034
000030 80 e9 fe 3d cf de ce 3d e5 9a 40 be b9 a1 a1 be
       0.1244688 0.10101091 -0.18809088 -0.31568697
000040 a2 f1 3a be d2 0d 10 be
       -0.18256238 -0.14067772

weight f4 [9, 18]
000000 03 63 3d b9 0d 16 18 be f3 de 17 be 06 3a 55 3e
       -0.0001806133 -0.14852162 -0.14831142 0.20822915
000010 4b a5 00 3d d5 d7 93 3d de 23 f2 3c f7 c6 5d 3e
       0.031407636 0.07218901 0.029558118 0.2165793
000020 db bf 5f 3e 37 46 25 be ec 36 fb bd c0 0d 34 3e
       0.21850531 -0.16140066 -0.12266335 0.1758337
000030 22 f7 5e bd 41 9f 42 3e 02 6d 3e be 5f ef bd bd
       -0.054434903 0.19006063 -0.1859627 -0.09274172
000040 d2 15 67 bd 32 05 39 3c 3c d9 94 bd c3 5d 3e be
       -0.056417294 0.011292743 -0.07267997 -0.18590455
000050 4b b6 9d 3d d0 13 ae 3c 1e e8 71 3d a3 1e 56 be
       0.07700785 0.021249682 0.059059255 -0.20910124
000060 a6 80 92 3c d6 d8 67 be 1c 58 1d 3e 3d 1b ca 3c
       0.01788361 -0.2264131 0.15365642 0.024671191
000070 a5 f2 da bd 3a c7 2a 3e 56 07 e6 3d d8 cd df 3d
       -0.10690812 0.16677561 0.11231868 0.109279335
000080 49 da 30 be 22 e1 d4 bd 4e 45 c6 3b 8d 0c 58 be
       -0.17270769 -0.10394503 0.006050742 -0.21098538
000090 b1 fb ef 3d ec 94 4a bd 5a b4 c0 bd bd 7f 4b 3c
       0.11717928 -0.04945843 -0.09409399 0.012420592
0000a0 e1 eb de 3d 9e 22 7a bd b5 62 0e 3d 3b e0 cb 3d
       0.10884834 -0.06106817 0.034762103 0.09954878
0000b0 f8 68 42 be df 27 2b bc 24 19 ce 3d aa 46 1e be
       -0.18985355 -0.010446518 0.10063389 -0.15456644
0000c0 91 1a da 3b 89 4e 13 bd 34 0b 39 3c 3b b5 53 be
       0.006655999 -0.03596357 0.011294175 -0.20674603
0000d0 67 80 da bd 32 38 55 be 5a 0f 35 be 21 48 33 3e
       -0.10669022 -0.20822218 -0.17681637 0.17507984
0000e0 e5 49 3d be 82 b0 11 be 49 da dd 3c 60 10 6c 3e
       -0.1848522 -0.14227489 0.027081626 0.23053122
0000f0 c4 9a 41 3d 79 1d ab 3d 0a dc 55 3d 23 b7 60 3e
       0.047266737 0.08355231 0.0522118 0.21944861
000100 35 bb 0b be d5 a0 17 3e 9e 7b 95 bc 47 c4 89 bd
       -0.13645633 0.14807446 -0.018247422 -0.0672689
000110 a8 53 9e bd ff 2b 04 3e 0f 50 d4 3d 74 1e b0 bd
       -0.077308 0.12907408 0.103668325 -0.085995585
000120 0c c7 5c 3c 6e 9c 0e be 9b 28 27 3e a6 13 83 bd
       0.013475191 -0.1392686 0.16324084 -0.06400232
000130 86 d6 1c be e6 72 21 be 81 2f dc bd 5d 5f 34 3e
       -0.15316209 -0.15766487 -0.10751248 0.17614503
000140 9b a5 41 3d 16 92 3d be a3 11 4b 3e 42 d8 3f be
       0.047277074 -0.18512759 0.19830947 -0.1873484
000150 cf 06 2b 3e bb ab 70 be 4a 03 a2 3d b6 1d 6c 3e
       0.16701816 -0.2350301 0.079107836 0.23058209
000160 ba 55 60 3e c5 3e d7 bd b3 79 52 3e 15 ac 9b 3d
       0.21907702 -0.10510019 0.20554237 0.076011814
000170 fd 64 4f be 89 77 9c bc 33 07 e4 3b d0 f9 0a 3e
       -0.20253368 -0.019099968 0.006958866 0.13571858
000180 6e 3d 46 3e eb af f9 bb 24 78 34 3e 52 c6 21 3e
       0.19359371 -0.007619848 0.17623955 0.1579831
000190 18 76 a7 bd 33 36 91 bd f0 75 98 3d 30 32 07 be
       -0.081768215 -0.07090416 0.0744437 -0.13202739
0001a0 8f 0d 95 bd b5 0a 89 3d 73 72 63 be a0 0f 38 3e
       -0.07277977 0.06691495 -0.22211628 0.1797471
0001b0 43 43 c6 3d 69 fa 21 3e cd 7a e5 bd 1d 4e 2e 3e
       0.09680798 0.1581818 -0.11205063 0.17021985
0001c0 10 35 49 bd fc d0 16 be 39 c6 4b 3e 6e 31 d7 3d
       -0.04912287 -0.14728159 0.19899835 0.10507475
0001d0 f9 2b 2e 3d 4d 1f 2c be 1b 19 ef 3d 8b 5b 49 3e
       0.042522404 -0.16808815 0.1167471 0.19663827
0001e0 c0 d8 43 3e fc e7 a6 bc fa c1 88 3d b5 23 92 bd
       0.19125652 -0.02037429 0.06677623 -0.07135717
0001f0 88 ab 34 be 20 ca a7 bd bd a0 03 be ac e2 0c 3e
       -0.17643559 -0.08192849 -0.12854286 0.13758343
000200 0c 46 82 3e 7b 10 29 be 22 2a fb bd 0b a8 57 be
       0.25444067 -0.16510193 -0.122638956 -0.21060197
000210 40 f5 39 bd 02 49 c3 bd df 1c 31 be 5a b4 10 3d
       -0.045399904 -0.095354095 -0.1729617 0.035328247
000220 e1 68 0a 3c c2 dd b7 bd 66 b1 39 3e 1e 25 16 be
       0.008447857 -0.08977844 0.18134078 -0.14662597
000230 5b ec 35 3d 96 a6 14 3e f2 01 3d be 4e bf 4c bd
       0.04441486 0.14516672 -0.18457773 -0.04998713
000240 9c 47 ac 3d 59 72 3b be 70 03 70 3e 90 f3 bf 3c
       0.08412096 -0.18305339 0.23438811 0.02343157
000250 7e 03 7f bd d5 65 ba bd 1d 45 91 3d 16 0e 66 bd
       -0.06225919 -0.09101454 0.070932604 -0.056165777
000260 ed 94 ae 3d f8 50 46 3e ee 13 4f 3d 93 8d b4 3d
       0.08524499 0.19366825 0.050556116 0.08816066
000270 6e da 1a be 8d 90 10 3e af 2c 58 be 33 1b 42 3e
       -0.15122387 0.14117642 -0.21110795 0.18955688
000280 92 7b 18 3e 04 b3 1d bd
       0.14890888 -0.0385008

bias f4 [9]
000000 52 e5 1e be 67 a0 c6 bd 1f 60 de bd 08 99 58 be
       -0.15517166 -0.09698563 -0.108581774 -0.21152127
000010 91 3a 5b be 40 68 1b bd e6 9b 10 3e 69 ac 4b bd
       -0.2140906 -0.037941217 0.1412197 -0.04972497
000020 43 f0 5f 3d
       0.05467249

weight f4 [3, 9]
000000 4e cb 0c be 0b 69 43 3e 00 49 c7 bd bb 04 ac bd
       -0.1374943 0.1908304 -0.097307205 -0.0839934
000010 00 9a 0a bd 06 85 c8 bd 68 45 9d 3e 16 2f 15 be
       -0.033838272 -0.09790997 0.30717015 -0.14568743
000020 36 6a a5 be b3 ed 4e be 00 d6 3d bb 24 6b 9a be
       -0.32307595 -0.20207863 -0.0028966665 -0.30159867
000030 9b 03 60 3e 8a 52 97 be 10 51 90 3d 06 bd 89 3e
       0.21876375 -0.2955516 0.070467114 0.26902026
000040 a8 38 4e be 8f 18 97 be b8 45 72 3e 23 ba 18 be
       -0.201388 -0.29510924 0.23659408 -0.14914756
000050 30 e1 eb 3d 80 19 03 bc 20 f1 26 bd 31 a0 b3 be
       0.115175605 -0.008001685 -0.0407573 -0.35083154
000060 87 8a 89 3e 81 ce 3d be b5 05 8c be
       0.268635 -0.18535806 -0.27348104

bias f4 [3]
000000 1e eb 43 be cc 26 90 be 03 25 43 bd
       -0.19132659 -0.281546 -0.04764272

weight f4 [2, 3]
000000 e6 22 53 be 01 3a 06 3f 88 01 e4 3d 1d bb 12 be
       -0.20618781 0.52432257 0.111331046 -0.1432919
000010 31 b7 0a bf 3c 51 89 be
       -0.5418578 -0.2681979

bias f4 [2]
000000 2c 43 37 bf c7 69 30 3f
       -0.7158687 0.68911403
