models/give_me_some_credit/ann.pt (torch, 13546 bytes, 8 tensors)

weight f4 [18, 10]
00000000: 235d 45be 2600 c33e 3402 65be 7de7 b43e
00000010: c6c2 163e 34a1 cc3e 9ee9 44bf 3ab7 863e
00000020: 1e84 debe 4b14 7ebd 1648 313d 1b3a 6b3e
00000030: 23a2 efbe 3794 ef3e 8a9c 8fbe d0d3 1c3f
00000040: 4641 063d 5161 e03d 5e99 aabe 4546 12bf
00000050: 3f55 8cbe f3f4 ae3e 1876 19bf c29b c83e
00000060: 6eb2 c03e 6c96 5c3e 8287 abbf 2ba7 7abe
00000070: f054 69bf 363e 873e 3112 41be f5bb 7b3e
00000080: 069f 31bf 9081 43bd 1023 a53e d258 933e
00000090: 5beb bfbf 8bda 8b3e d13a 40be 65ff 91be
000000a0: a9be 123e a738 a63e 7ab0 c1bc ff08 9c3e
000000b0: 1a89 7c3e 71c8 263d 2c94 2d3f ca29 0cbf
000000c0: d1ce 013f 2abc 3e3d c939 863f 4755 963e
000000d0: 8256 85be b91a c93d b687 ac3d 2ef1 0ebe
000000e0: b46b 8ebf 5933 5d3d a2f8 e3be f218 763e
000000f0: 42cc 75c0 5022 d43d 1c7d 4abf afda 953e
00000100: 252b ca3c e863 3bbd 496c ffbf d9ab 9bbd
00000110: 4710 e1bf b5dc 1abe 7b35 7ebf 31ad 1dbc
00000120: 8bab 8bbf 6892 933e 1e9a 353d 0fa0 1dbe
00000130: 6d7a e8bf 31e9 2abc 6615 b0bf 8569 093c
00000140: e316 713e 08d7 2b3f 0b32 93be 0887 0b3c
00000150: da29 a73c 05c3 033f e7a0 aa3e 7961 163f
00000160: d33c c83e 426a a13d 103a 89c0 bd00 ac3c
00000170: 7862 eabe 3288 ccbd 47fc 3e3b 6327 cb3e
00000180: 933d 2ebd 5857 92be bf3e 7bbe eb92 9dbe
00000190: eebe 31bf 3d04 1a3d 0329 5cbe 8983 d53a
000001a0: 8197 7dbe 7fa9 273f 6f56 573e e838 0b3f
000001b0: 6221 8abc 1b5a 21be 412c ddbe f82b 743e
000001c0: 325a 1dbf fa0c ae3d db56 113f c96e 8c3e
000001d0: 683b 90bf cf51 99bd 8292 75bf 62e2 8fbe
000001e0: 0a14 8f3e 5b5f e9bd f528 753e 6bff 21be
000001f0: c58b a3be 280d 1abd 6e29 5d3e 8a33 adbd
00000200: f852 0dbe 4fb1 82be 721c 12c0 41ad 033f
00000210: 25c2 6dbe 0112 5d3e 8a7a 173f e7e6 b33e
00000220: 728d 74bf 9170 4bbe c1a0 14bf 421c df3d
00000230: 950a 07c0 9606 bfbd d55f 5ebf d1a9 193e
00000240: 4f35 c23e 2be5 c23d e4ce 5bbf b7cb 9f3e
00000250: 2b0b 32bf 2edc 3abe 9b22 84bd 87dd 993e
00000260: 2370 c8be 14cf ef3e 4a2a 063f f4ec 09be
00000270: 4931 0bc0 9b75 8f3e fb58 6dbf f1bf ef3d
00000280: b421 9fc0 1e30 193e ecf6 edbf ac0f 493e
00000290: 3f79 1c3e fb0d 6cbe 1eef 0ec0 d75a 79bd
000002a0: 78b3 d4bf 8b17 c6bb d792 7bbc 28f7 5e3e
000002b0: e9e8 3ebf 9453 ce3e 70c2 193e d0ba fa3d
000002c0: 68f0 c9bf 0eef 8abe d21d 1cbf 76b3 74be
-0.1927381 0.3808605 -0.22364122 0.35332862 0.14722738 0.39966738 -0.7691897 0.26311666
-0.43460172 -0.06203107 0.043281637 0.22971384 -0.46803388 0.46792766 -0.28049117 0.612607
0.032777093 0.10956062 -0.33320135 -0.5713847 -0.27408788 0.34171256 -0.5994582 0.39181334
0.3763613 0.21541756 -1.3400729 -0.24477832 -0.9114523 0.2641465 -0.18854596 0.24583419
-0.69383276 -0.047730982 0.32253313 0.28778702 -1.49937 0.27315173 -0.18772437 -0.28515163
0.14330544 0.32465097 -0.02364372 0.30475613 0.24661675 0.0407185 0.6780422 -0.54751265
0.507062 0.046566166 1.0486385 0.29361936 -0.26042563 0.0981955 0.08424322 -0.1395919
-1.1126618 0.054004047 -0.4452563 0.24032953 -3.840592 0.10358107 -0.7909715 0.29268405
0.024678776 -0.045749575 -1.9954921 -0.07601137 -1.7583092 -0.15123256 -0.99300355 -0.009623812
-1.0911726 0.28822637 0.04433643 -0.15393089 -1.8162361 -0.010431574 -1.375653 0.008386974
0.23543887 0.67124987 -0.28749117 0.008516081 0.020405699 0.5146945 0.33325884 0.5874248
0.39108905 0.07881595 -4.2883377 0.020996446 -0.4577825 -0.09986915 0.0029142068 0.39678487
-0.04253919 -0.28582263 -0.24535654 -0.30776152 -0.6943196 0.0376017 -0.2150002 0.0016289811
-0.24764825 0.65493006 0.21029066 0.5438371 -0.016861621 -0.15757029 -0.43197826 0.23844898
-0.6146575 0.08498569 0.56773156 0.27428272 -1.1268129 -0.07486307 -0.9592668 -0.28102404
0.27944976 -0.11395141 0.23941405 -0.1582009 -0.31942573 -0.037610203 0.21597835 -0.08457096
-0.13801181 -0.255259 -2.2829862 0.5143624 -0.23218592 0.21588899 0.59171355 0.35137102
-0.9552833 -0.1986716 -0.5805779 0.108940616 -2.1100209 -0.09327428 -0.8686498 0.15006186
0.37931296 0.095163666 -0.85862565 0.3121011 -0.6954829 -0.18248054 -0.06451913 0.30051824
-0.39148054 0.46837676 0.5240828 -0.13469297 -2.1748831 0.28019413 -0.927139 0.11706532
-4.972864 0.14959762 -1.859098 0.19634885 0.15280627 -0.23052208 -2.2333446 -0.060877647
-1.661727 -0.006045287 -0.015354834 0.2177397 -0.7457414 0.4029814 0.15015578 0.12242663
-1.5776491 -0.2713551 -0.60983 -0.23896584

bias f4 [18]
00000000: 7f04 9b3c 2907 ae3d c490 d43e 65fb e33e
00000010: a50a 253d d4e2 f6bd 8fc1 643e 2f0f 883e
00000020: 8d58 883d 9260 8d3e ea24 553e 2017 cc3e
00000030: ad97 6fbe 796c 2f3e bb71 6f3e 51fa aa3d
00000040: 9c16 eb3d 10f4 f53e
0.018923042 0.084974594 0.41516697 0.44527736 0.040293355 -0.12054983 0.22339462 0.26574084
0.06657515 0.2761274 0.20814863 0.39861393 -0.23397703 0.17131223 0.23383228 0.08348525
0.11478922 0.48037767

weight f4 [9, 18]
00000000: 7ff7 c93e a9c7 043e ec80 df3e d043 433e
00000010: f97e ecbe da93 f33e 32b5 533f 88bb 173f
00000020: e250 023e fa39 093f a3b0 923e b57e 963e
00000030: aeb6 5cbe 8d1f b53e c4fb b23e 10e2 143f
00000040: f44c b23f a110 1f3f 8c33 e6bd bfc9 c2bc
00000050: 16ca 6dbe 8a3d 11be a6c4 093e 899b 543e
00000060: e00a e8bc c912 5cbe bc6a a4bd d96c f7bd
00000070: 3574 0abe 9e2f fa3d e2e8 ab3d 04a0 1abe
00000080: 4aa1 d4bd f509 23be ec51 5ebe f612 35be
00000090: 92d8 613e 7575 f03e e509 72be b29e 0fbe
000000a0: 5f4c 833e aff5 e2be d90d 31bf b825 0fbf
000000b0: 57cc fe3e 3c9c 5d3e 3341 d33e dae5 fcbc
000000c0: 1ae4 6c3d 2caf dc3c 4103 453e 7984 d7be
000000d0: 6800 ccbf 4e58 edbe 473e f0bd de84 64be
000000e0: 0c47 7fbd cdbd 203e b611 eebd 6d52 6b3e
000000f0: 663d c8bd ca4e 2dbe 583a 1dbe 7a4f f53d
00000100: 1c3f 04be d6a2 a43d c3ce 203e 4a1d 43be
00000110: 00fc e93b d856 a1bd ddf2 6ebe 6a63 c13d
00000120: 686b b33d 75e3 bfbe f4f3 05bd decd efbd
00000130: 0ab5 fb3d dd33 20be ead6 873d 11ba 1b3e
00000140: 0bd0 8bbd 5323 0b3e 90d3 a6be fd2f 60be
00000150: 7bad 473e af05 24bd 7242 a33d 1c17 5b3d
00000160: 6565 0f3e aae7 393c 7b04 943e 145f e13e
00000170: 8bce a23d e7b7 ba3d f768 b6be 3ff2 d33e
00000180: d204 593f e0c9 ef3e 7ce7 2c3e 7550 a73e
00000190: 95c0 cb3e e8f0 603e f159 283d 080c 813e
000001a0: b1ba d83e e79d e83e 0ab2 a43f 98e1 e83e
000001b0: a453 f23d e7a3 62be 8d32 6fbe 0f49 3ebe
000001c0: 495c 6c3b e6f6 ab3d cc9c 12be 5e06 3b3e
000001d0: 20b7 913d ff8a 53bd bdac 9abe 6cad 513e
000001e0: 92d6 873d cbc3 c83c 9164 80bc 962a afbd
000001f0: 23e2 57be bcf2 493e 953a a73c f825 a9bb
00000200: 615d f83d 7eb8 4ebe f23f ec3d 1aec 52be
00000210: cc8a 50be 0ef3 16be cced a1be 9b2a b73d
00000220: 0990 97be 28ad 65bd 289f fabd e32d 8abd
00000230: e2c7 50be 577c 4e3c f0c4 fc3d 1ba4 c9bd
00000240: fc2f b83e 087f eb3e c43f 843e d427 f13e
00000250: 3359 a3bd 4307 3a3f e7e7 123f 16bc 103e
00000260: 084d f63e b17b c63e 0573 033f c32b a03e
00000270: d530 cd3d 7abc fc3e 8686 e83e 2d4d 123f
00000280: ee59 733f c52a 913e
0.39446637 0.1296679 0.43653047 0.19068837 -0.46190622 0.4757374 0.8269836 0.59270525
0.12726167 0.5360409 0.28650388 0.29393545 -0.21554062 0.35375634 0.34957707 0.58157444
1.3929734 0.6213475 -0.112403005 -0.02377784 -0.23221621 -0.14183632 0.13453922 0.20762457
-0.028325498 -0.21491541 -0.080281705 -0.12081308 -0.13520892 0.122161135 0.08394028 -0.15100104
-0.10382326 -0.15921767 -0.21710938 -0.17683014 0.22055271 0.46964613 -0.23636587 -0.14025381
0.25644204 -0.44328067 -0.69161755 -0.5591693 0.49765274 0.2164163 0.4126068 -0.03087132
0.057834722 0.026938997 0.19239523 -0.42093256 -1.5937624 -0.46356434 -0.117306285 -0.2231631
-0.062323615 0.15697403 -0.11624472 0.22980662 -0.09777336 -0.16924587 -0.15354288 0.119780496
-0.129147 0.08038871 0.15703873 -0.19054142 0.0071406364 -0.07877892 -0.23334832 0.0944279
0.087607205 -0.37478223 -0.032703355 -0.11709188 0.1229039 -0.15644784 0.066327885 0.15207697
-0.068267904 0.13587694 -0.32583284 -0.21893306 0.19499771 -0.040044483 0.07971658 0.053488836
0.14003523 0.011346737 0.28909668 0.4401785 0.07949551 0.09117108 -0.35626957 0.41395757
0.8477298 0.46833706 0.1688518 0.3267857 0.39795366 0.21966898 0.0411014 0.25204492
0.42329934 0.4543297 1.2866833 0.45484614 0.118323594 -0.22132836 -0.23359127 -0.18582557
0.0036065748 0.083967015 -0.14317626 0.18264148 0.071150064 -0.05164623 -0.30209914 0.20476311
0.06632723 0.024507424 -0.015672954 -0.085530445 -0.21082358 0.19721502 0.020413676 -0.005161997
0.121271856 -0.20187566 0.11535634 -0.20597878 -0.20365447 -0.14741156 -0.31626737 0.08943673
-0.29602078 -0.056073338 -0.12237388 -0.067470334 -0.20388749 0.012602887 0.1234225 -0.09845754
0.3597411 0.45995355 0.258299 0.471007 -0.07975998 0.7266733 0.57385105 0.14134249
0.48105645 0.38766244 0.5134738 0.31283388 0.100190796 0.49362546 0.45415133 0.5714901
0.95059097 0.28352943

bias f4 [9]
00000000: 4a1d 7b3e 5053 9cbd a22e dd3e 4c98 37be
00000010: cfee 51bd e3f3 74bd 6719 89bd f4c7 863c
00000020: dde5 da3e
0.24522892 -0.07633078 0.4319964 -0.1792919 -0.051253136 -0.0598029 -0.06694298 0.016452767
0.42753497

weight f4 [3, 9]
00000000: 3123 91be 687d 78be bf17 503f 5647 7cbe
00000010: dfd0 57be 8d97 9ebd 534c 56be 5102 43be
00000020: 4d73 773e 8ebd 153f a697 16be 506c 54bf
00000030: 84b5 c43d 4c58 8cbe 9490 1a3f 3de5 86be
00000040: 5751 8dbc 54b9 293f 0042 1f3e 512c 8f3e
00000050: 4d5c 86bf 6293 233e 5969 023d 1e88 b33e
00000060: 0a53 84be b087 d63d 2c07 863e
-0.2834716 -0.24266589 0.81286234 -0.24636588 -0.21075772 -0.0774375 -0.20927553 -0.19043852
0.24165078 0.5849236 -0.14706287 -0.8297777 0.09604934 -0.27411115 0.6037686 -0.2634677
-0.0172507 0.66298413 0.15552521 0.27963498 -1.0496918 0.15974191 0.03183875 0.35064787
-0.25844604 0.10475099 0.26177347

bias f4 [3]
00000000: 04b1 473e 8601 e03e c5d9 cebe
0.1950112 0.43751162 -0.4040052

weight f4 [2, 3]
00000000: 9463 813f 9dc4 03bf 5fa4 24bf fb11 63bf
00000010: 70c0 1c3f 7bde fe3e
1.0108514 -0.51471883 -0.6431331 -0.8869931 0.61231136 0.49779114

bias f4 [2]
00000000: 5137 95be 0825 67bd
-0.29143766 -0.0564318
