models/give_me_some_credit/linear.pt (torch, 6046 bytes, 2 tensors)

weight f4 [2, 10]
-0.4873802 -0.59690523 0.75510293 -0.5947612 -0.553061 -0.5237603 1.3831133 -0.16136725
0.9810959 -0.49090996 -0.025583733 0.7447522 -0.6992748 0.6967798 0.80291384 0.4729266
-1.2281085 0.7390815 -1.010743 0.30125317
00000000: e689 f9be c8ce 18bf 6d4e 413f 4542 18bf
00000010: 6895 0dbf 2815 06bf db09 b13f 753d 25be
00000020: 1a29 7b3f 8d58 fbbe fa94 d1bc 15a8 3e3f
00000030: ac03 33bf 2960 323f c38b 4d3f 6f23 f23e
00000040: a932 9dbf 7234 3d3f 0760 81bf db3d 9a3e

bias f4 [2]
-0.3588813 0.78422743
00000000: 4abf b7be 21c3 483f
