models/give_me_some_credit/linear.pt (torch, 7705 bytes, 4 tensors)

weight f4 [2, 10]
0	0x3f19f6c5	0.60142165
1	0xbf260d62	-0.6486417
2	0x3f948ef6	1.1606128
3	0xbe870e23	-0.26377973
4	0xbf302219	-0.6880203
5	0xbe382797	-0.17983852
6	0x3fe7a64e	1.8097627
7	0xbe0ce22c	-0.13758153
8	0x3f8df5f3	1.1090683
9	0x3e61da19	0.22055854
10	0xbec3c877	-0.3823888
11	0x3dd4b7da	0.103866294
12	0xbf8bb571	-1.0914747
13	0x3ef9b4f7	0.48770878
14	0x3f0215b9	0.50814396
15	0xbe17ae15	-0.14812501
16	0xbfdabe04	-1.7089238
17	0xbe4ff085	-0.20306595
18	0xbfa4c852	-1.2873633
19	0x3d01355c	0.031545028

bias f4 [2]
0	0xbf16d6b9	-0.5892139
1	0x3eafa8d0	0.3430848

weight f4 [2, 2]
0	0x3f08cab9	0.5343433
1	0xbfaf850e	-1.371248
2	0xbfc8e4f7	-1.5694875
3	0x3fb7db56	1.4363811

bias f4 [2]
0	0xbbc95474	-0.006144101
1	0x3e041b8d	0.12901135
