models/give_me_some_credit/linear.pt (torch, 1895 bytes, 2 tensors)

weight f4 [2, 10]
0	0x3eae02e1	0.3398657
1	0xbf3b91e4	-0.73269486
2	0x400ba948	2.182207
3	0xbf2e2156	-0.68019617
4	0xbf8bf36f	-1.0933665
5	0xbdbb4a88	-0.09145075
6	0x4023ddd1	2.5604136
7	0x3df5a6b2	0.11994685
8	0x3fef8aee	1.8714273
9	0x3ebe8bb0	0.37215948
10	0xbec58c16	-0.3858344
11	0x3f8486ad	1.03536
12	0xbfe7c0ad	-1.8105675
13	0x3f45a0d3	0.77198523
14	0x3f9922ad	1.1963707
15	0x3e8e4299	0.27785185
16	0xc01b2f13	-2.4247482
17	0x3db73c62	0.08947064
18	0xc01b2077	-2.4238565
19	0x3c014365	0.007889603

bias f4 [2]
0	0xbf6e4104	-0.93067956
1	0x3f85a8b4	1.0442109
