models/heloc/ann.pt (torch, 6455 bytes, 8 tensors)

weight f4 [18, 21]
000000 64 25 dc 3d 1d 56 21 3e ba 2b ef 3d f1 25 4b 3e
       0.10749319 0.15755506 0.11678262 0.19838692
000010 53 4b 38 3e 96 8b 30 3e 06 d4 d2 3d 5b 67 02 3d
       0.17997484 0.17240748 0.102943465 0.03183685
000020 8d db af bd 8c aa 1a 3e bb 22 18 3e d1 af 16 be
       -0.08586798 0.15104121 0.14856999 -0.14715506
000030 67 2a 57 be 44 e0 39 3c 74 9c 8e 3d 8d 79 7b 3d
       -0.21012269 0.011344973 0.06963435 0.061395217
000040 28 57 0c 3e e6 c1 35 be ae 93 1c bd 5c 22 5d 3e
       0.13705122 -0.17749748 -0.038226776 0.21595138
000050 78 5d 32 3e aa 60 a7 3d 65 a0 73 3d 06 f4 36 3d
       0.17418468 0.08172734 0.059479136 0.044666313
000060 8f 80 11 3e 92 e7 bb bc a3 76 cf bd 9a a8 c8 3c
       0.14209197 -0.02293757 -0.1013005 0.024494458
000070 5a eb 24 3d 61 0d bc bd af 28 37 be a8 91 04 3d
       0.04026351 -0.09182239 -0.17886613 0.03236547
000080 01 6c b7 3d ca b2 ef 3d ce ce f7 bd d3 4b 85 3d
       0.08956147 0.11704023 -0.12099992 0.06508603
000090 63 bd 02 bb fb b0 f6 bd b1 6e da bd 32 f0 31 bd
       -0.001994931 -0.12045475 -0.10665644 -0.04344196
0000a0 9e 49 30 be 41 89 c5 bd 90 cd 51 3e f4 02 53 3e
       -0.17215583 -0.0964532 0.20488572 0.20606595
0000b0 c3 1f 08 bd 84 19 42 be 7d 76 6d bc e8 77 29 3e
       -0.033233415 -0.18955046 -0.014493582 0.16549647
0000c0 93 2c 8a 3d 15 c0 95 3b 70 27 e4 bd 6b c4 96 3d
       0.06746783 0.004570017 -0.111403346 0.073616825
0000d0 62 70 25 bc 39 cd dd bd ee 1e 15 3e 2f 3f fe 3d
       -0.010097595 -0.10830159 0.1456258 0.12414395
0000e0 54 50 ec bc 00 ab 2e 3e 00 da 5e be b9 1e 25 be
       -0.028846897 0.17057419 -0.21762848 -0.16125001
0000f0 87 4e c1 bd 44 7e 4d be 48 c1 13 3e 38 49 9a bc
       -0.09438806 -0.20067698 0.144292 -0.018833742
000100 ef 61 c6 bd ef de 04 3b 56 64 58 3e 99 1a 2e 3e
       -0.09686648 0.002027448 0.21132025 0.17002334
000110 e5 54 1a bc e5 b3 4f be 38 7d 4c 3e ab 3e 33 bd
       -0.0094196545 -0.20283468 0.19969642 -0.043760937
000120 e1 2c 3d bc 46 da 5b be 3d 47 77 bd a9 9b 38 3e
       -0.0115463445 -0.21469983 -0.060370672 0.1802813
000130 10 9b 03 3e 90 2b 1d 3e dd 40 90 3d 30 7a 5e 3d
       0.1285212 0.15348649 0.07043622 0.054315746
000140 12 61 01 be 3f f3 1f be e0 0a 9f bd 4c 29 c9 3c
       -0.12634686 -0.15620135 -0.07765746 0.024555825
000150 35 37 da 3d 13 cc e2 bd e2 b0 cc bd 18 9a 92 bc
       0.10655061 -0.1107408 -0.09994675 -0.017895743
000160 40 0a 3d 3e 00 c6 c6 bd d8 d4 bb 3d 77 3c c2 bd
       0.18460941 -0.09705734 0.09171456 -0.09484189
000170 04 28 fd bd 36 a8 cf bd 58 f7 12 be 92 34 34 bc
       -0.12361148 -0.101395056 -0.14352167 -0.010998862
000180 cb 24 64 bd c3 7d d5 bd d4 02 05 3d 2f 26 15 bd
       -0.05569915 -0.10424378 0.0324734 -0.036413368
000190 50 c1 46 3e de e5 1c be 9a bf 2c 3b 96 ff 5e 3e
       0.1940968 -0.15322062 0.002635932 0.21777186
0001a0 82 40 26 3d 08 38 a4 bd 36 b5 ca 3d 98 77 bc 3d
       0.040588863 -0.080184996 0.098978445 0.09202498
0001b0 5d 0b f8 bd 65 3a 85 bd a3 68 a5 3c 36 7f 1a 3e
       -0.121115424 -0.065052785 0.020191496 0.1508759
0001c0 d1 1e a8 3d 29 5d f1 3c ea 4c ed bc 60 8f 14 be
       0.08209003 0.029463368 -0.02896734 -0.14507818
0001d0 5d 8f 85 3d 80 0f 5e 3e 1e fb 2f 3e b8 f0 c1 3d
       0.06521485 0.216856 0.17185637 0.094697416
0001e0 d2 db 1f 3e c7 cd 2d be 73 bc 54 3e 28 eb 5e be
       0.15611199 -0.16973029 0.20775013 -0.21769392
0001f0 5b fb 15 3d 6e 7d 16 3e 9b fa 45 be 5c 0f bf 3d
       0.036616664 0.14696285 -0.1933388 0.093291014
000200 ff 0b c2 3d 8b 06 e3 3d e9 28 6d 3c 02 a8 09 3c
       0.09474944 0.11085232 0.014475086 0.008401873
000210 a8 ef f4 bc 5e bd a3 bc 09 d4 bd 3c 19 0e 04 3d
       -0.029899433 -0.019987758 0.023172395 0.032240007
000220 9f c3 dd 3d 60 da 05 3e 53 1b 39 3b b1 34 46 3e
       0.108283274 0.13071585 0.0028245046 0.19356038
000230 a4 5e f7 3d a6 f4 4b be 15 97 46 3e 0d ef 5c be
       0.12078598 -0.19917545 0.1939357 -0.21575566
000240 e9 9b 85 bc 29 90 5e be 88 05 9f bc 07 d3 68 bd
       -0.016309695 -0.2173468 -0.019411817 -0.056841876
000250 23 a1 38 be 15 e5 c6 bd 0c 0f 32 3d 6a 06 35 be
       -0.18030219 -0.09711663 0.04347138 -0.17678228
000260 c9 4e c6 bd 5d 69 81 3d 3f 78 d7 3c 83 45 91 3d
       -0.09682996 0.063189246 0.026302455 0.070933364
000270 da fa a7 3d 46 d8 cb bd 40 80 1f be 60 c6 21 3d
       0.08202143 -0.0995336 -0.15576267 0.039495826
000280 22 48 45 3e 1e 66 31 3d bf 22 13 3e d9 0c 51 be
       0.19265798 0.043310277 0.14368723 -0.20415057
000290 8a 0e 57 be 82 57 11 3e bb a0 ae bd 93 63 08 3e
       -0.2100164 0.14193538 -0.08526751 0.13319235
0002a0 32 65 36 3e 45 1f 1a 3d 43 60 c8 bb 3e 73 48 3e
       0.1781204 0.037627477 -0.006114991 0.19575211
0002b0 13 90 6d 3d 38 e0 39 be 28 b5 12 bd 93 49 b0 bd
       0.057998728 -0.18151939 -0.035817295 -0.08607783
0002c0 23 12 1e 3e cd af ec bc 76 8f 11 3d 5c 60 32 3e
       0.15436606 -0.028892422 0.035537206 0.1741957
0002d0 a1 4c d3 bd 22 e2 24 3e 86 45 27 3e 89 01 34 bd
       -0.1031735 0.16101888 0.16335115 -0.043946777
0002e0 3c ac 85 3d 67 86 46 3e ac 5e b5 3d ce c1 e2 bd
       0.06526992 0.19387208 0.08855948 -0.110721216
0002f0 41 4f f8 3d 52 0d 09 3d 83 bb d7 bd 4d 68 2e be
       0.121244915 0.03345997 -0.10533812 -0.17031975
000300 6f e4 f4 bd 05 9f dc bd cd 4e 63 3d 1c 5f fe bc
       -0.11957633 -0.10772518 0.055495072 -0.031051211
000310 85 ad 20 3e 14 eb 06 be 1a 3e 2a 3e 72 8e 22 be
       0.15691192 -0.13175613 0.16625252 -0.15874651
000320 2b 58 d7 bc 7d 97 e5 bd c6 46 6e bc 70 bb bb bb
       -0.026287159 -0.11210535 -0.014543241 -0.0057291314
000330 da bc 5d be f3 2e 54 be f8 3c 2d be 03 1b b5 bb
       -0.21654072 -0.20721035 -0.16917789 -0.0055269017
000340 68 58 3d be d2 8b 2f be 9e 30 52 be ed 2e 21 3e
       -0.18490756 -0.17143181 -0.20526358 0.15740557
000350 83 72 29 be 5c 31 46 3e 94 67 cf bd 08 ed 5c be
       -0.16547589 0.19354767 -0.10127178 -0.21574795
000360 93 63 de bc bd a3 2c 3e f7 ff 9e 3b 39 47 0d be
       -0.02714709 0.16859336 0.0048522907 -0.137967
000370 71 e7 4e 3e 37 ac 05 be 21 c2 fd bd 62 44 2e 3e
       0.20205475 -0.13053976 -0.12390543 0.17018273
000380 75 3a 50 be fa 5d 32 be bf 9f 26 be b9 92 15 3d
       -0.203348 -0.17418662 -0.16271876 0.03651688
000390 cc 7a 48 3e 4a 81 34 3e 8a 9c 0f 3e 3a 26 84 3d
       0.19578093 0.17627445 0.14024559 0.06452604
0003a0 0d 1c 9a bc 8d 42 25 be 32 52 f5 3d e6 29 1d be
       -0.018812204 -0.16138668 0.11978568 -0.15348014
0003b0 61 75 d8 bb 48 55 99 3d 92 0b 2d bd 7d 61 c9 3d
       -0.0066057895 0.07486969 -0.042247362 0.098330475
0003c0 51 dd 57 3e 58 ca 57 3e c2 c7 7a bd d5 bc a0 3d
       0.2108052 0.21073282 -0.06122566 0.07848517
0003d0 9a ae 35 be 15 d6 9a 3d 0a 59 c6 3d 6e 43 3d 3e
       -0.17742386 0.07560364 0.096849516 0.18482754
0003e0 e1 94 74 bd 28 d7 57 be 56 3e 12 3c cf 61 0c be
       -0.059712294 -0.2107817 0.008925995 -0.13709186
0003f0 ca c1 50 be 0a 24 19 be ce 6b 01 3c 08 e2 de bd
       -0.20386425 -0.14955154 0.007899238 -0.10882956

bias f4 [18]
000000 d1 90 bf bc 69 65 80 bd 82 56 1f be 5b ae 26 bd
       -0.023384484 -0.062693425 -0.15560344 -0.040693622
000010 4e ce 21 3e 1c 9f 1c be 42 0d 11 3e 07 72 39 be
       0.15801355 -0.1529507 0.14165214 -0.18109904
000020 a0 c8 1d 3d 80 a7 5a be 57 75 30 bd 66 0f 10 be
       0.03852141 -0.21352959 -0.043080654 -0.14068374
000030 f1 d2 8e 3d 51 5d cc 3d 48 a3 c4 3d b9 20 20 be
       0.06973828 0.09978736 0.09601456 -0.15637483
000040 49 69 9e bd 0b 5a 25 be
       -0.07734925 -0.1614763

weight f4 [9, 18]
000000 aa 73 38 be bd 19 4e 3e a5 86 84 3d 74 5d 41 be
       -0.18012872 0.20127006 0.06470994 -0.18883306
000010 e5 52 2f bd a3 c2 8d bd 87 aa 3d be 6c cb d5 3d
       -0.042803664 -0.0692189 -0.18522082 0.1043919
000020 11 1e 8a 3d 0a fb 4a bd 18 b6 58 3d 83 c9 40 be
       0.06744016 -0.049555816 0.052908033 -0.1882687
000030 be 84 41 be 1d 9b b7 3d 44 a1 a8 bd 69 38 f5 3d
       -0.18898293 0.089651324 -0.08233884 0.1197365
000040 53 ad ea bc 15 10 1e 3e 2a 11 d9 3b b3 2b 5b be
       -0.0286471 0.15435822 0.0066243606 -0.21403389
000050 e2 91 fa 3d cc 0e 6f 3d 3b e4 c9 bd bf 5d 6d be
       0.12234856 0.05836372 -0.09857985 -0.23180293
000060 fa 20 1c 3e 1d 28 66 bd 92 d8 22 3e c0 77 68 be
       0.15246955 -0.0561906 0.15902928 -0.22701931
000070 c3 44 39 be 62 53 fc bc 4d f9 84 bc 34 53 0c bd
       -0.18092637 -0.030801479 -0.016232157 -0.034259036
000080 52 a4 cd 3d 89 a6 00 3e 1b 24 e5 3d 5d 8e 0a 3e
       0.10041107 0.12563528 0.11188527 0.1353087
000090 4b d8 18 3e 7b 7a 29 bd 29 35 2c bd ef 32 bf bc
       0.14926259 -0.041376572 -0.042042885 -0.023339717
0000a0 cb 32 99 3d 39 c1 c6 bd bd c5 0b be d9 47 56 be
       0.07480391 -0.09704823 -0.1364965 -0.20925845
0000b0 57 26 63 bd 10 a1 14 3d 3a 8a cb 3c aa 6d 10 be
       -0.055456486 0.036286414 0.024846185 -0.14104334
0000c0 80 a1 e5 bc 62 44 fb bc 03 8f 3b 3e a6 5a c6 bd
       -0.02803111 -0.030672256 0.18316273 -0.096852586
0000d0 14 10 e8 bd 33 30 23 3e 39 8b 36 be be 64 04 3e
       -0.11331192 0.15936355 -0.17826547 0.12929055
0000e0 aa 34 70 3e 62 9a 29 be 85 0f 00 be b1 44 6c be
       0.2345759 -0.16562799 -0.1250592 -0.23073079
0000f0 5d e4 00 be 8a 25 03 3e 75 8b 13 be fc a9 1f 3d
       -0.12587114 0.12807289 -0.14408667 0.03898047
000100 d7 20 e7 3d 25 7c 75 bd 91 7b 01 3e 5c f9 13 bc
       0.112855606 -0.059932847 0.12644793 -0.00903162
000110 5a b8 55 3e 39 42 0a be 31 e1 46 3d 76 a2 5c 3e
       0.20871106 -0.13501824 0.048554603 0.21546349
000120 46 05 34 3e 5d 5d 17 3d 74 d0 8d 3d 71 dd d0 bd
       0.17580137 0.036954273 0.06924525 -0.101984866
000130 60 34 95 3d 16 70 e3 3d b4 8f 9f 3d 70 72 cb 3d
       0.0728538 0.11105363 0.07791081 0.099339366
000140 1a 76 8b bd 83 5d ff 3d 94 5a 08 3e e5 03 6c 3e
       -0.068096355 0.12469008 0.13315803 0.2304836
000150 01 fe 38 3c 4f 0f 24 3e 91 5c 62 be a0 e3 60 be
       0.011291028 0.16021465 -0.22105624 -0.21961832
000160 ac d9 5e be 96 7f 57 3d 85 b6 15 be a8 cf 6b 3e
       -0.21762723 0.05261191 -0.14620407 0.23028433
000170 57 f1 ea 3d 95 0d 8b 3d de d9 07 bb 42 b3 04 be
       0.11471813 0.067897 -0.0020729224 -0.12959006
000180 06 2b 87 bd 52 70 27 be a2 79 6e 3e 7c 8b d4 bd
       -0.06600003 -0.1635144 0.23288587 -0.10378167
000190 60 55 5b be 9b 45 58 be 4d 97 63 bd c4 d9 45 3e
       -0.21419287 -0.21120302 -0.055564214 0.19321352
0001a0 93 d1 38 3d 22 19 5f be 5f 61 10 3e d2 96 e6 3d
       0.04512174 -0.21786931 0.14099644 0.112592354
0001b0 77 9f 1f be 56 65 72 bb bf 92 54 3e a1 d3 17 bd
       -0.15588175 -0.003698667 0.20759104 -0.03706706
0001c0 af 05 22 be ae 38 07 3d bd 60 17 be 06 64 26 3e
       -0.1582248 0.03301304 -0.14782996 0.16249093
0001d0 75 27 5e be 83 b7 05 3b 9b 7f 51 be 08 47 91 3d
       -0.21694739 0.002040357 -0.20458834 0.07093626
0001e0 bf fd 04 3e 73 43 2f 3e 5f 06 cd bd f8 be cd 3d
       0.12987421 0.17115574 -0.10010981 0.1004619
0001f0 cb 8c 95 3d 01 3e 20 bd d4 35 43 bc 51 3f f3 bd
       0.07302245 -0.03912163 -0.011914689 -0.11877311
000200 e1 cd 32 bd 2f f0 28 bd 73 4e 45 be fe 09 0d 3d
       -0.043653373 -0.041244682 -0.19268207 0.034433357
000210 f0 da 6f 3e 58 34 e7 bd fd 43 56 be ea a1 3d bd
       0.23423362 -0.11289281 -0.20924373 -0.04629699
000220 49 50 f9 3c 64 e3 d0 bd 25 9c 69 3e 70 72 34 3e
       0.03043379 -0.10199621 0.2281347 0.1762178
000230 be c8 c9 3c d3 7e 3c 3e 13 96 4d bc e6 0b 44 be
       0.024631854 0.18407755 -0.0125479875 -0.19145164
000240 2c 78 1d be 0a 40 f4 bc 81 b6 ff 3d 1d 52 32 3e
       -0.15377873 -0.029815692 0.12485982 0.17414136
000250 88 c7 32 be 50 88 30 3d 0f 3a 2e bc e6 cb 99 bd
       -0.17458928 0.043098748 -0.010633959 -0.07509594
000260 7e ce 28 be 3f 05 4e be 95 38 0e 3e a4 18 cf bd
       -0.1648502 -0.20119189 0.13888772 -0.10112122
000270 74 87 4f 3e fd ec 5a 3e 46 4f 93 3d e5 58 da 3d
       0.20266515 0.21379466 0.071928546 0.106614865
000280 26 bc fa 3c 8a 4c 1d 3e
       0.030607294 0.15361229

bias f4 [9]
000000 42 a5 fa bd da 6c 02 be 8d e4 b8 bb 25 a3 21 be
       -0.12238552 -0.12736836 -0.0056424798 -0.15784891
000010 6e 6e 24 3e c2 cd 30 bd ca 5f 18 be cf 65 d8 3c
       0.1605775 -0.043164976 -0.1488029 0.026415734
000020 79 a2 3f 3e
       0.18714322

weight f4 [3, 9]
000000 43 8d 62 3e 43 f2 8e be fb 2a 9b 3d a0 bd 46 3d
       0.221242 -0.27919206 0.07576557 0.048520684
000010 28 92 1b be b6 1b 24 3d e6 39 58 3e 47 9b a9 3e
       -0.15192473 0.04006549 0.21115837 0.3312628
000020 eb c0 8b 3d ab 6c 83 bd e4 74 94 be c2 ae a2 3e
       0.068239056 -0.06417211 -0.2899543 0.31773955
000030 c8 bd 08 3e 96 b1 81 3c b0 ba 3c 3e 03 5f 7c be
       0.13353646 0.01583175 0.1843059 -0.24645619
000040 3b 8b 9a 3e c0 6f 2b be 0b 19 27 3d 86 78 12 be
       0.3018435 -0.16741848 0.040795367 -0.14303789
000050 c3 0c 50 3e e3 85 9f 3e 27 3c 9d be 66 58 9f 3e
       0.20317368 0.31156835 -0.30709955 0.3112213
000060 5e f8 11 be ee 06 49 be d0 60 42 3e
       -0.14254901 -0.1963155 0.18982244

bias f4 [3]
000000 a6 3f ae bd 52 54 9b be 3b 2b a3 bd
       -0.08508234 -0.3033777 -0.0796723

weight f4 [2, 3]
000000 79 a8 44 3e 67 e6 e9 3e 22 84 b4 3e 17 99 7e 3e
       0.19204892 0.45683596 0.3525706 0.24863087
000010 38 aa 0b 3f fa 4d a3 be
       0.5455661 -0.3189543

bias f4 [2]
000000 9d be 2b bc 14 9d 15 bd
       -0.0104824575 -0.036526754
