models/heloc/ann.pt (torch, 6391 bytes, 8 tensors)

weight f4 [18, 21]
-0.061089355 -0.08762583 -0.053181 0.2286312 0.19163135 0.09914172 0.017100453 0.033142257
0.17736413 0.24218827 0.2330093 -0.09219119 0.0025812965 0.27120793 0.10881068 0.12254633
-0.08790715 0.092633374 0.154033 0.10758549 0.08814555 -0.04457197 0.11135181 0.09868852
0.16775832 0.075207934 0.08076535 0.24544051 0.22086787 -0.12678406 0.055652052 -0.05544292
0.07962185 0.15253453 0.053716373 0.034416337 0.023149697 -0.13385598 0.10627469 0.048226733
0.24393341 0.19590831 -0.0038053468 0.044688754 -0.067426436 0.1891985 0.05474721 -0.21820544
-0.16271739 -0.028823514 -0.15568067 -0.07655156 -0.17651884 0.08839017 -0.004485993 0.10151277
-0.18175445 -0.061879948 -0.017219711 0.05599197 -0.13822968 -0.21258907 -0.14178172 0.015456319
-0.08573307 -0.03428379 0.18955247 -0.009832464 0.10775354 -0.14056846 -0.18313205 -0.10011313
-0.10850814 -0.071057655 0.11074694 0.17207 -0.20449208 0.0689414 -0.13606052 -0.15653588
-0.038909685 0.21704876 -0.0021580362 -0.19657744 -0.09461553 0.048345685 -0.13063279 -0.067231946
0.28166547 -0.003920057 -0.044180837 -0.14267819 0.17350824 0.14811571 -0.014888157 -0.037822135
-0.01982518 0.09643225 -0.0693531 -0.012879552 0.16342008 0.14430141 -0.037881356 0.055946086
0.08468022 0.15130754 -0.17049475 -0.124199755 0.11712116 -0.21603595 -0.038663402 0.19159257
-0.008365505 -0.0091758445 0.108337745 -0.21096468 0.04849483 -0.00024657138 -0.12070774 0.14582878
-0.23759963 0.217174 -0.17625833 -0.15908007 -0.0027909577 0.113707066 -0.21748579 0.018130975
0.044072572 0.16500816 -0.055632968 -0.0970006 -0.17469904 -0.16508454 -0.14912118 0.017040478
-0.019342218 -0.22478499 -0.112125196 0.13154262 -0.08462957 -0.09068693 -0.14198017 -0.03223021
-0.08965673 -0.15121312 0.10884889 0.14835471 0.085018165 0.017145976 -0.10276794 0.2595087
-0.057728484 0.20254952 -0.14696582 0.19320913 -0.12581022 0.15556386 0.22508481 -0.011860953
-0.07688427 -0.062701255 -0.052501816 0.114211954 0.12715012 -0.015243507 -0.063493796 0.24193738
0.02881947 -0.0058627557 0.11692919 -0.09068217 -0.16544533 -0.14814338 -0.0011358724 -0.019984933
-0.20665337 0.13965093 0.1487988 -0.20568608 -0.22322765 -0.00043063093 0.08285125 0.15877438
-0.1138222 -0.047927395 -0.14528592 0.036418278 0.010353632 0.077832535 0.09590423 0.0378713
-0.18998669 -0.117091134 -0.18376698 -0.13625501 -0.08695926 -0.08873415 -0.18779764 -0.17410669
-0.26214945 0.07140401 -0.091266476 -0.25921118 -0.18876801 -0.073515534 0.11086416 -0.23891857
0.16696608 0.13182597 -0.008594528 0.119136885 0.10149687 0.083409294 -0.08517436 0.029619563
0.03376163 -0.023255061 -0.1781478 -0.067831844 -0.115497515 -0.043824412 0.08223141 -0.074371375
-0.16330132 0.092224106 -0.07868202 0.08131348 0.15309572 -0.16366495 0.053487066 -0.117150664
0.1919336 0.07499519 0.14240658 0.0035862664 0.047726158 -0.12836659 -0.026067454 0.20533113
0.09971179 -0.14470094 0.019403739 0.21075001 -0.25987896 -0.13748902 -0.0010085863 0.10330718
0.12283016 -0.0043783397 -0.22930266 -0.25012633 0.106051765 0.20006447 -0.18069027 0.17366965
00000000: d538 7abd 2c75 b3bd 52d4 59bd 4c1e 6a3e
00000010: 023b 443e d00a cb3d 4016 8c3c 2dc0 073d
00000020: f19e 353e 3400 783e fd99 6e3e bcce bcbd
00000030: f82a 293b c4db 8a3e 22d8 de3d 92f9 fa3d
00000040: aa08 b4bd 91b6 bd3d d4ba 1d3e c855 dc3d
00000050: a785 b43d 1991 36bd 6b0c e43d 351d ca3d
00000060: d6c8 2b3e 9e06 9a3d 4e68 a53d c254 7b3e
00000070: 302b 623e aed3 01be 68f3 633d 1e18 63bd
00000080: c810 a33d 0332 1c3e b305 5c3d 25f8 0c3d
00000090: 6fa4 bd3c 8b11 09be 8ba6 d93d 6589 453d
000000a0: aec9 793e 309c 483e 2063 79bb 8e0b 373d
000000b0: df16 8abd 40bd 413e 9c3e 603d 3f71 5fbe
000000c0: 639f 26be 4a1f ecbc c16a 1fbe 10c7 9cbd
000000d0: 5bc1 34be e805 b53d 3dff 92bb ede5 cf3d
000000e0: d71d 3abe d475 7dbd 5a10 8dbc d657 653d
000000f0: 158c 0dbe f3b0 59be 3a2f 11be 803c 7d3c
00000100: d294 afbd 296d 0cbd 0b1a 423e 5818 21bc
00000110: e3ad dc3d 2ef1 0fbe f886 3bbe 1d08 cdbd
00000120: 8439 debd ad86 91bd 4bcf e23d 1e33 303e
00000130: 5f66 51be 2631 8d3d 7353 0bbe f14a 20be
00000140: c35f 1fbd 0842 5e3e d76d 0dbb 994b 49be
00000150: c9c5 c1bd 2006 463d 9ac4 05be e7b0 89bd
00000160: 7536 903e d273 80bb f7f6 34bd 3b1a 12be
00000170: 25ac 313e a5ab 173e 75ed 73bc 62eb 1abd
00000180: 6a68 a2bc 467e c53d 0009 8ebd c204 53bc
00000190: 9857 273e c0c3 133e 7b29 1bbd b927 653d
000001a0: d36c ad3d 5df0 1a3e 2d96 2ebe 715c febd
000001b0: 38dd ef3d 8738 5dbe 845d 1ebd d830 443e
000001c0: 790f 09bc 4856 16bc 2ee0 dd3d 2007 58be
000001d0: 84a2 463d 4046 81b9 9f35 f7bd 2454 153e
000001e0: 514d 73be dc62 5e3e 107d 34be e3e5 22be
000001f0: 80e8 36bb 40df e83d 98b4 5ebe 6987 943c
00000200: 7185 343d e6f7 283e 65df 63bd 40a8 c6bd
00000210: 4ee4 32be ec0b 29be 39b3 18be 7998 8b3c
00000220: 9273 9ebc 092e 66be e5a1 e5bd 1cb3 063e
00000230: 4552 adbd 12ba b9bd 4063 11be d303 04bd
00000240: f39d b7bd 9dd7 1abe 2bec de3d 4cea 173e
00000250: 011e ae3d b875 8c3c ff77 d2bd 53de 843e
00000260: b474 6cbd 2469 4f3e 357e 16be 9dd8 453e
00000270: 65d4 00be 224c 1f3e a27c 663e 7154 42bc
00000280: 8075 9dbd 8469 80bd 250c 57bd f5e7 e93d
00000290: a433 023e e7bf 79bc 0909 82bd 6fbe 773e
000002a0: cf16 ec3c 5c1c c0bb 9278 ef3d 93b7 b9bd
000002b0: 806a 29be e6b2 17be 8ee1 94ba 71b7 a3bc
000002c0: f19c 53be a700 0f3e b65e 183e 5f9f 52be
000002d0: ca95 64be 4ec6 e1b9 ebad a93d c095 223e
000002e0: 9d1b e9bd 844f 44bd d5c5 14be 552b 153d
000002f0: 48a2 293c aa66 9f3d 7069 c43d f01e 1b3d
00000300: df8b 42be 7acd efbd 692d 3cbe 6f86 0bbe
00000310: b217 b2bd 40ba b5bd 064e 40be 0649 32be
00000320: 7438 86be 443c 923d ebe9 babd 54b7 84be
00000330: 674c 41be 508f 96bd c00c e33d 12a7 74be
00000340: 28f9 2a3e 63fd 063e 10d0 0cbc 0afe f33d
00000350: 97dd cf3d 7ed2 aa3d e56f aebd baa4 f23c
00000360: a349 0a3d 6681 bebc 606c 36be 6ceb 8abd
00000370: f689 ecbd 3a81 33bd f168 a83d 0550 98bd
00000380: 7638 27be fedf bc3d 0a24 a1bd af87 a63d
00000390: 20c5 1c3e c997 27be 4115 5b3d b0ec efbd
000003a0: 3e8a 443e 1497 993d 08d3 113e 9107 6b3b
000003b0: 817c 433d 8872 03be 6a8b d5bc 5342 523e
000003c0: b235 cc3d 7c2c 14be 97f4 9e3c dace 573e
000003d0: db0e 85be ecc9 0cbe 8a32 84ba b792 d33d
000003e0: 618e fb3d 2d78 8fbb 51ce 6abe 8f10 80be
000003f0: ab31 d93d b3dd 4c3e df06 39be 75d6 313e

bias f4 [18]
-0.028419541 0.18378268 -0.038870275 0.10254707 0.14597863 -0.16571562 0.12613547 0.021956293
0.09835983 0.07874332 -0.09121695 -0.0028622425 0.22693107 0.10172049 -0.15891539 -0.04107977
0.27404842 0.22470884
00000000: 19d0 e8bc 8731 3c3e 7036 1fbd 3304 d23d
00000010: 6c7b 153e 5bb1 29be a829 013e afdd b33c
00000020: e170 c93d 2e44 a13d f4cf babd 7694 3bbb
00000030: 9e60 683e d552 d03d b7ba 22be 4343 28bd
00000040: 1350 8c3e 131a 663e

weight f4 [9, 18]
0.26948756 0.08430586 -0.17139238 -0.13470349 0.07230817 -0.02945055 -0.06514951 -0.0625638
0.0053115482 -0.07082656 -0.15959482 -0.19994162 0.05940205 -0.031400286 -0.22041942 0.23235242
-0.006708276 0.12403268 -0.19078779 -0.21896973 -0.074033275 -0.098775744 0.153961 -0.046390165
0.019897358 0.19495374 0.03651932 0.00354337 0.19240148 0.16854429 0.15751474 0.019472068
0.18153968 -0.02386245 -0.21598382 0.020176988 -0.15198474 0.07935336 -0.0030621372 -0.01508683
0.19673167 -0.13143262 0.17710643 0.11652581 0.07665108 0.019412057 0.2008413 0.22965054
0.09934652 -0.17517592 0.20018739 0.17648485 0.13806549 0.046246015 -0.20595463 0.17905316
0.13192888 -0.22871538 -0.046306994 0.19791818 -0.07322153 0.012375607 0.0639806 -0.0076626902
-0.09662064 -0.19188185 -0.039880782 -0.11183762 -0.1491511 -0.077451974 -0.020599132 -0.0224464
-0.027142236 0.21666439 0.0055734804 0.026867267 0.005046653 -0.19913992 0.106510945 0.19298561
-0.086257555 -0.17511457 -0.013558268 0.012492771 0.015071027 -0.076429784 0.21476002 0.23782833
-0.08236695 0.14854047 -0.0944757 0.1710362 -0.018461827 0.09785841 0.24790351 0.042554673
0.0128860455 0.23156749 -0.1268708 0.06420892 0.2513024 -0.19624664 0.2438866 -0.086104095
0.175141 -0.071926266 0.27336138 0.10271628 -0.013683617 0.18908302 0.07356007 0.13635832
0.0809167 -0.20363536 0.009334732 0.019647043 0.20340289 -0.017828047 -0.15058376 -0.15319093
-0.03533083 0.13494222 -0.12586555 0.08610115 -0.06694547 0.21592255 -0.11128603 -0.26298487
-0.13910383 0.11871601 -0.1725755 -0.0088203475 0.091755934 -0.12249438 0.016604133 -0.08361946
0.015498389 -0.17527702 -0.124816775 0.102699205 0.22699203 -0.22375984 -0.06576457 -0.081792854
-0.2260322 -0.18808368 0.18457516 -0.0060524843 -0.12524961 0.06493539 0.024518957 0.22328249
0.034829088 0.20972969 0.035259463 -0.02257287 -0.22344562 0.016113808 -0.049830303 -0.04819894
-0.10931319 -0.20285831
00000000: 46fa 893e 8da8 ac3d 7c81 2fbe b6ef 09be
00000010: 4e16 943d 4842 f1bc 1b6d 85bd 7321 80bd
00000020: 7f0c ae3b 840d 91bd d36c 23be 7fbd 4cbe
00000030: 904f 733d 969d 00bd a1b5 61be cbed 6d3e
00000040: 19d1 dbbb d904 fe3d e05d 43be 9a39 60be
00000050: c29e 97bd f04a cabd f4a7 1d3e 9d03 3ebd
00000060: c9ff a23c f4a1 473e 4895 153d e237 683b
00000070: e504 453e e096 2c3e 8b4b 213e e383 9f3c
00000080: 8ae5 393e 2f7b c3bc dd2a 5dbe 364a a53c
00000090: e3a1 1bbe 0484 a23d 23ae 48bb c02e 77bc
000000a0: 0774 493e 4696 06be 635b 353e 15a5 ee3d
000000b0: 3efb 9c3d 0906 9f3c 57a9 4d3e 8329 6b3e
000000c0: 3076 cb3d 5161 33be ecfd 4c3e 72b8 343e
000000d0: 0a61 0d3e 766c 3d3d c5e5 52be b659 373e
000000e0: 5d18 073e 5d34 6abe 67ac 3dbd 10ab 4a3e
000000f0: 2bf5 95bd 0fc3 4a3c 4308 833d 4e17 fbbb
00000100: 0be1 c5bd ad7c 44be 085a 23bd 1f0b e5bd
00000110: 11bb 18be 249f 9ebd 83bf a8bc 83e1 b7bc
00000120: 6559 debc 45dd 5d3e bea1 b63b be18 dc3c
00000130: 655e a53b 56eb 4bbe 6922 da3d 059e 453e
00000140: cda7 b0bd 3c51 33be 7f23 5ebc 7bae 4c3c
00000150: 78ec 763c 3887 9cbd 0dea 5b3e 4589 733e
00000160: 01b0 a8bd fe1a 183e 7a7c c1bd 1d24 2f3e
00000170: 423d 97bc fd69 c83d 6bda 7d3e cf4d 2e3d
00000180: fe1f 533c 0720 6d3e 6bea 01be f77f 833d
00000190: b5aa 803e e1f4 48be 69bd 793e 5857 b0bd
000001a0: 2a58 333e 144e 93bd 06f6 8b3e ea5c d23d
000001b0: 4031 60bc fb9e 413e a9a6 963d 84a1 0b3e
000001c0: a8b7 a53d ca85 50be b4f0 183c d6f2 a03c
000001d0: d948 503e 200c 92bc a132 1abe 15de 1cbe
000001e0: 0fb7 10bd 4b2e 0a3e e6e2 00be cd55 b03d
000001f0: b51a 89bd cd1a 5d3e eee9 e3bd f4a5 86be
00000200: 3c71 0ebe 6121 f33d a2b7 30be 3883 10bc
00000210: 89ea bb3d 55de fabd 6405 883c ae40 abbd
00000220: f4ec 7d3c d27b 33be f09f ffbd f653 d23d
00000230: 9970 683e 4d21 65be 93af 86bd 0383 a7bd
00000240: fc74 67be 0299 40be 4501 3d3e eb53 c6bb
00000250: 6f41 00be d9fc 843d fbdb c83c 2aa4 643e
00000260: f2a8 0e3d 61c3 563e 3a6c 103d bdea b8bc
00000270: eece 64be 1b01 843c dc1a 4cbd 406c 45bd
00000280: 98df dfbd 17ba 4fbe

bias f4 [9]
0.11247982 -0.094154485 -0.13706605 -0.08601795 0.18772486 0.011434768 0.21838419 0.18304172
-0.22609916
00000000: d25b e63d 11d4 c0bd 0b5b 0cbe 2e2a b0bd
00000010: f23a 403e e558 3b3c 1ba0 5f3e 4a6f 3b3e
00000020: 8a86 67be

weight f4 [3, 9]
-0.19061415 0.2820103 0.13614947 -0.17287938 -0.22478138 -0.31277868 -0.11555338 -0.01856813
0.09891677 -0.32954472 -0.15750258 -0.05592852 -0.2971477 -0.111305214 -0.25702894 -0.100035146
0.27845794 0.33141014 -0.051169317 -0.30452415 0.24516842 0.19307423 -0.028339148 -0.2837392
0.09118923 0.28299063 0.22020161
00000000: 5b30 43be a763 903e c46a 0b3e 4b07 31be
00000010: 172d 66be 8724 a0be 40a7 ecbd 311c 98bc
00000020: e094 ca3d 16ba a8be 5b48 21be 4e15 65bd
00000030: be23 98be fdf3 e3bd 4c99 83be 3adf ccbd
00000040: 0a92 8e3e 97ae a93e eb96 51bd 97ea 9bbe
00000050: 6e0d 7b3e 40b5 453e 8027 e8bc 4446 91be
00000060: 6bc1 ba3d 26e4 903e 887c 613e

bias f4 [3]
0.086222455 0.23704223 -0.18199202
00000000: 6695 b03d 33bb 723e 1e5c 3abe

weight f4 [2, 3]
-0.40396532 -0.23415247 0.2712457 0.48945865 0.42796212 0.1433747
00000000: 8bd4 cebe aac5 6fbe b7e0 8a3e 539a fa3e
00000010: da1d db3e d1d0 123e

bias f4 [2]
0.11833359 0.004643092
00000000: e258 f23d 1425 983b
