models/heloc/linear.pt (torch, 1985 bytes, 2 tensors)

weight f4 [2, 21]
00000000: 5507 38bf b3e5 45bf 60c6 9a3e 7131 6fbf
00000010: 4eca 36bf 22f1 433f 639c c33e fa5c 03bd
00000020: 6e7d b2be c0a7 b5be bfe5 dd3e d60e 693e
00000030: aae5 163e edae c63f 8099 9f3f 05e5 a63f
00000040: 4df7 3c3f e6b8 e13e 059c 40be 837c 9d3f
00000050: ecb5 613e f38f 163f 2b03 083f 24e3 e9be
00000060: aaa1 5d3f f512 0c3f e829 12bf 8633 3abf
00000070: 4fdb ad3d a4b5 073f 14b7 b93e d000 02bf
00000080: 3a23 dcbe 8aad 8c3d c515 c5bf 83ba 94bf
00000090: 23e5 abbf fdb5 64bf b88c 35bf aa8e 903e
000000a0: fa6f c2bf 4214 dcbe
-0.7188619 -0.7730362 0.30229473 -0.93434817 -0.7140244 0.76539814 0.3820525 -0.03207109
-0.3486132 -0.35479546 0.43339345 0.22759566 0.14736047 1.5522133 1.246872 1.3038641
0.7381485 0.4408638 -0.18809517 1.2303623 0.22042054 0.588134 0.53129834 -0.45681107
0.86574805 0.54716426 -0.57095194 -0.7273487 0.084890954 0.53011537 0.3627249 -0.5078249
-0.42995626 0.068690374 -1.5397269 -1.1619419 -1.3429302 -0.8934019 -0.70917845 0.28233844
-1.5190423 -0.42984205

bias f4 [2]
00000000: bcac 8a3e 914d 0abf
0.2708491 -0.54024607
