models/heloc/linear.pt (torch, 1985 bytes, 2 tensors)

weight f4 [2, 21]
00000000: 43e9 3bbf dc06 30bf 1de6 8ebc 3011 33bf
00000010: 5f53 2cbf b3ff 3c3f d09f 2d3f 8807 e13b
00000020: 7d08 11bf 54f6 e4be 8a74 ff3e 96d3 db3e
00000030: de89 dc3d 9835 cb3f e0e8 bf3f ce76 993f
00000040: 8fbe 363f 69af 423f a5ef acbe 5af1 b93f
00000050: c2c6 423e 64e8 223f ede5 253f 8967 283d
00000060: 451d 433f af40 5e3f ccd7 23bf 1112 22bf
00000070: 901e 0fbe 620e cd3e a6d8 a53e 7a15 11bf
00000080: 15bd 9ebe e661 12bd 5852 c5bf fa78 a7bf
00000090: ea9e 8bbf 68b7 14bf 8535 cfbe 0067 983e
000000a0: 93ba c2bf 7d91 02bf
-0.73402804 -0.68760467 -0.017443711 -0.699481 -0.67314714 0.73827666 0.6782198 0.006867353
-0.5665358 -0.44719183 0.498936 0.42934865 0.107684836 1.587573 1.4992943 1.1989381
0.7138452 0.76048905 -0.33776584 1.452678 0.19021133 0.6363585 0.64803964 0.041114364
0.76216537 0.8681745 -0.64001155 -0.6330882 -0.13976502 0.40050036 0.32391852 -0.56673396
-0.31003633 -0.035737894 -1.5415754 -1.3083794 -1.0907872 -0.58092356 -0.4047052 0.29766083
-1.5213188 -0.5100325

bias f4 [2]
00000000: d760 d13e 8e8d a0be
0.40894195 -0.31357998
