models/compas/ann.pt (torch, 12927 bytes, 8 tensors)

weight f4 [18, 10]
000000 01 66 00 3f 3e 94 8c 3d 7f a0 04 bf 9b 63 bc be
       0.50155646 0.068642125 -0.518074 -0.36794743
000010 f4 71 08 3e f8 92 79 be 8e 37 d4 3d be 90 99 bd
       0.1332472 -0.2437247 0.10362159 -0.074983105
000020 a6 9e 8f 3e 3e 2d 65 3e a5 89 f8 3e 32 98 e4 3d
       0.28050727 0.2238054 0.48542514 0.111618415
000030 6a cd 8a bf 69 b3 cf be 0d 45 06 3d cc 84 13 3e
       -1.0843937 -0.40566567 0.032780696 0.14406127
000040 f3 36 2f be a4 c9 b6 bd 93 e7 9e 3e aa 0d aa 3e
       -0.17110805 -0.08925179 0.31036052 0.3321355
000050 29 f9 71 3f 22 82 a9 3e a6 fe c8 be 02 32 a4 be
       0.94520813 0.33107096 -0.3925678 -0.32069403
000060 84 22 af 3e e1 1a e0 bc 7c 0b 1c 3e 35 8b 1d bd
       0.3420602 -0.027356567 0.15238756 -0.038462836
000070 97 01 3d be 20 93 24 be 00 d6 22 bf 08 00 9c bc
       -0.18457638 -0.16071749 -0.6360779 -0.019042984
000080 1a df 40 3f 12 ba 16 bd 39 ac ff bd 84 5e 64 bd
       0.75340426 -0.036798544 -0.12484021 -0.0557542
000090 56 33 5b be 75 b9 e1 3d cb a8 55 3e 34 9b cd bd
       -0.21406302 0.11021701 0.2086517 -0.10039368
0000a0 0b 84 86 3f 8c e1 15 bc 16 e4 72 bf 98 ee fa be
       1.0509046 -0.009148013 -0.9487928 -0.49010158
0000b0 a0 9a 36 be f0 55 63 3e 66 d2 af bd 4c 31 29 bb
       -0.17832422 0.22200751 -0.08585052 -0.0025816737
0000c0 47 7d a6 bb 96 00 d6 3d dc 7f e8 3e 25 10 e6 3b
       -0.005080852 0.104493305 0.4541005 0.0070209675
0000d0 99 59 41 bf 3c 54 25 bf 97 64 19 be 95 11 0f be
       -0.7552734 -0.64581656 -0.14979778 -0.13971551
0000e0 25 31 c1 bc ec d1 a6 3e cf 3e 96 3e a2 8a ec bc
       -0.023583004 0.32582033 0.29344794 -0.028874699
0000f0 79 b8 78 3f d5 c1 65 be bd 03 5c bf c0 a3 18 bf
       0.9715648 -0.22437222 -0.85943204 -0.5962486
000100 a4 34 ab 3e 5e 78 e4 bd 34 32 96 bd 58 ab 90 3e
       0.334386 -0.11155771 -0.07333794 0.28255725
000110 71 9e 31 be 51 cb 58 3d 56 ae f6 3e 6d 29 eb bd
       -0.17345597 0.052928273 0.48179883 -0.11482511
000120 a9 25 21 bf 6a a0 5e bf 6a dd 80 3e f5 b8 40 3e
       -0.6294809 -0.8696352 0.25168926 0.18820556
000130 f8 18 60 bc ec 40 76 3e 03 f7 12 be 08 c4 1e bd
       -0.013677828 0.24048203 -0.1435204 -0.03876117
000140 14 07 47 3f 2b 2a 7f 3d b6 57 37 bf 77 77 48 bf
       0.77745175 0.062296074 -0.7161821 -0.7830729
000150 4c df 8d bc 98 ef 7f 3e 9f f9 b2 3d 94 dc 2a 3e
       -0.01731839 0.24993742 0.08739018 0.16685706
000160 c3 fc a4 bd f2 82 13 be 88 a9 23 3f e4 2a 65 3d
       -0.08056023 -0.1440542 0.6393056 0.055949107
000170 3b 0e b8 be 92 a4 fe bd 05 cc a8 be 7b 74 20 3e
       -0.35948357 -0.12433733 -0.32968155 0.15669434
000180 2a 2e 65 be ac b3 b0 3e c7 6d 45 bb 33 38 a7 3d
       -0.22380891 0.3451208 -0.0030125247 0.08165016
000190 3d 37 8a 3f b8 a7 1c be 3c dc 77 bf ec cd 10 bf
       1.0798107 -0.15298355 -0.96820426 -0.5656421
0001a0 3c 43 71 3e 73 63 25 3d 6b 20 f2 3d c0 53 54 3a
       0.23560804 0.040378045 0.118225895 0.0008099638
0001b0 d4 10 2f be 81 40 2a be 6b a9 1c 3f f9 ac 2c 3e
       -0.17096263 -0.16626169 0.6119601 0.16862859
0001c0 96 63 96 be a0 28 d0 be 08 95 ca bd f6 c4 e2 3e
       -0.29372853 -0.40655994 -0.09891707 0.44290894
0001d0 5f b9 dc bc 9f 0a 14 3d fa 06 0d be f8 55 7f be
       -0.02694386 0.03614294 -0.13772193 -0.24935138
0001e0 ba 26 05 3f 35 c6 4c be 3c 59 1f bf f1 d9 f9 be
       0.5201222 -0.19997485 -0.62245536 -0.4879909
0001f0 47 47 03 3e b6 b8 e1 3e 9f 6f 6d be a7 3e ae 3d
       0.12820159 0.44086236 -0.23187111 0.08508044
000200 77 86 1c 3e df 5d a3 3d 96 bf 01 bf fa e0 95 3e
       0.1528567 0.07976889 -0.5068296 0.29273206
000210 b2 58 80 3f 20 e0 08 3f 09 49 b9 3d 17 1f 61 3d
       1.0027068 0.5346699 0.090471335 0.05496129
000220 59 77 c2 bd 69 4a a2 be 24 b3 8b 3e 96 a1 8d 3e
       -0.0949542 -0.31697395 0.2728511 0.27662343
000230 57 70 bc 3d 20 5b 4b bd 06 e0 3b 3e d2 06 55 be
       0.092011146 -0.04964745 0.18347177 -0.20803383
000240 00 20 15 3d df 4c 73 3d 04 cc 05 bc 0c 2e 59 be
       0.03640747 0.059399482 -0.008166317 -0.21208972
000250 28 5b 8d bd 73 46 3e be 90 20 33 3e 3f ed 86 be
       -0.06902152 -0.18581562 0.1749289 -0.2635288
000260 77 23 1b bf ed bf 73 bf 75 51 c5 bd e5 30 82 3d
       -0.6060099 -0.9521473 -0.09634677 0.06356982
000270 c8 2e 1b 3c 70 7a af 3d 3e 41 bd bc 0d 00 6a be
       0.009471603 0.08568275 -0.023102399 -0.22851582
000280 6e 24 68 3f d6 a2 2f be a6 f3 35 bf 9d 2a 6e bf
       0.9068059 -0.1715196 -0.71074903 -0.9303377
000290 ae ae 1e 3e e2 c6 a1 3e 5b f6 03 3e b8 1b d2 3d
       0.15496323 0.31597048 0.12886946 0.10259193
0002a0 75 12 9b 3e 97 b4 ab 3d 5b ec 4c 3f b0 4a 31 be
       0.3028752 0.08384054 0.8004815 -0.17313647
0002b0 8a 91 46 bf 21 a3 fa be ba 52 9a bd f0 a9 1a be
       -0.77565825 -0.48952582 -0.0753531 -0.15103889
0002c0 da 9e b4 3d 4d 9a 82 3d 5d 1d 7b 3e 0e f5 67 3e
       0.08819361 0.06377087 0.2452292 0.22652075

bias f4 [18]
000000 8b 03 21 3d e9 6b 52 bc 27 54 7d 3e 27 37 f4 3e
       0.03931002 -0.012843111 0.24739133 0.47698328
000010 6e 23 b6 3e 35 f0 ad 3e 86 75 27 3e fe 2a a5 3d
       0.35573906 0.33972326 0.16353425 0.08064841
000020 b8 a8 13 3e 36 16 42 bd 06 b7 b5 3e cd 2e 66 be
       0.1441983 -0.047384463 0.35491198 -0.2247879
000030 e3 cd 79 bd 91 1e d4 3e 76 90 da bd 88 94 69 3e
       -0.060987365 0.4142957 -0.10672085 0.22810566
000040 c5 30 43 bd d8 ac 16 3e
       -0.047653932 0.14714372

weight f4 [9, 18]
000000 74 42 44 3d b8 61 de 3e 0c 43 ca bc 47 cb 69 be
       0.047914937 0.43433928 -0.024690174 -0.2283145
000010 ab 88 90 3e 33 23 e4 3d 7a dd 27 3f c3 54 53 3e
       0.2822927 0.11139526 0.6557232 0.20637803
000020 ec 30 cf 3e be 81 62 3e 5b 11 04 3f 45 a9 d1 3e
       0.40467012 0.22119805 0.5158898 0.40949455
000030 73 7a 37 3e a7 1f 91 be 70 ea 6d be e8 48 02 3e
       0.17917804 -0.2834446 -0.23233962 0.12723124
000040 bd bb d2 3e ba 7e 15 3e 65 8e 4a be ee aa d7 3d
       0.41158858 0.14599124 -0.19780882 0.10530649
000050 5b 74 50 be 9e 0a 65 be 9b 5f 24 be 2c 4c 37 be
       -0.20356886 -0.22367331 -0.16052096 -0.17900151
000060 3e 0d f9 bd c9 82 16 3e 7c 21 0f be b2 e4 45 3d
       -0.12160729 0.14698328 -0.13977617 0.048313804
000070 c6 c1 4b 3d c3 91 6e 3d 5f 0a 89 bd 04 10 e6 bc
       0.049745344 0.058244478 -0.06691431 -0.028083809
000080 8e 77 8e bc 60 77 23 bc a7 7a 7f be 1d 67 a8 3d
       -0.017390992 -0.009977192 -0.24949132 0.08222792
000090 18 52 3b 3e c2 4e 88 3e 78 b4 ba 3e bb 41 34 be
       0.18293035 0.26622587 0.36465812 -0.17603199
0000a0 6d 85 b2 3e b1 6f 0c 3e 26 42 cc 3e ac 52 a4 3e
       0.3486742 0.13714482 0.39894217 0.32094324
0000b0 c9 6c 91 3e 54 d3 5b 3e 48 34 f8 3e 63 22 98 3e
       0.2840331 0.21467334 0.48477387 0.29713735
0000c0 b7 11 00 3f 4f 52 b4 be 88 18 d5 3c 2e 97 b5 3e
       0.5002703 -0.35219046 0.026012674 0.35466903
0000d0 d5 aa 5e 3e aa 9b 09 3f ea 19 48 3e f4 30 92 3e
       0.21744855 0.5375315 0.19541135 0.28552973
0000e0 e4 d1 16 3e 26 3d c8 be 76 26 0f 3f 4f 26 6a 3e
       0.14728504 -0.39109153 0.5591806 0.22866176
0000f0 bc 78 ad 3e 64 54 76 bc 31 23 60 3e 07 ee d9 3e
       0.33881176 -0.015034769 0.21888424 0.42564413
000100 3f e8 15 3f 30 80 f7 3d 53 bd ca 3e 90 01 a1 be
       0.58557504 0.12084997 0.39597568 -0.31446505
000110 7a f8 15 3e c9 63 0a 3d 6d d1 a2 3e 8b 4f c2 3e
       0.14645568 0.03378657 0.31800404 0.3795131
000120 50 fa 64 3e 7a 50 11 3e 17 17 7d 3e 12 c8 81 bd
       0.22361112 0.14190856 0.2471584 -0.063369885
000130 bc 4a 2b 3e 8b 92 9e 3e f2 a0 60 3e d4 85 2b 3e
       0.16727728 0.30971178 0.21936396 0.1675027
000140 b2 e4 e4 3e 35 ed 74 3e 62 eb f3 3e 6b 49 99 3e
       0.4470573 0.23918612 0.4764052 0.29938826
000150 bc 6f f2 3e a6 ae af 3d 15 17 4a 3e f1 ec 87 3e
       0.47350872 0.085782334 0.19735368 0.2654796
000160 8f c9 25 3e 0f 31 4e 3e 1f 45 60 3e 52 8a e4 3e
       0.1619017 0.20135902 0.21901368 0.4463678
000170 6f ef cd bd be 7d 8a be b0 ea 1d 3e 4b ee 85 3e
       -0.10055434 -0.2704906 0.15421557 0.26158366
000180 7e 3c ba 3e 64 82 be bc 34 c8 e6 3e 03 c6 27 3e
       0.36374277 -0.023255534 0.45074618 0.16384129
000190 59 3a f7 3e 66 88 dc 3e f6 24 50 3e 2a 56 82 be
       0.48286703 0.43072814 0.203266 -0.25456363
0001a0 c1 8c 38 3d ce 0e 1f bd d7 8a 83 3e 55 7d ca 3d
       0.04505611 -0.03883248 0.25691864 0.098871864
0001b0 43 c5 9e bd 47 b5 f6 bc 15 7d b7 bc bf cf cd 3d
       -0.077524684 -0.030115737 -0.022398511 0.1004939
0001c0 a5 47 bc 3d 2e 60 e1 bd 38 a1 29 be 75 e0 bb 3c
       0.091933526 -0.11004673 -0.16565406 0.022934178
0001d0 d9 a6 29 be 33 85 a2 3d b9 38 23 3e 20 d7 3c 3e
       -0.16567554 0.07935562 0.15939607 0.18441439
0001e0 97 6e 84 bc 53 66 58 be f8 63 7c bd 72 dc 81 be
       -0.016166015 -0.21132784 -0.061618775 -0.253635
0001f0 26 3e 9d ba 2c 5a ec 3d 30 6f 19 3e 5c de 0f 3e
       -0.0011996671 0.115406364 0.14983821 0.14049667
000200 82 b7 05 be 88 84 f7 bc 45 10 b2 3c 7d bc 7b be
       -0.13058284 -0.030214563 0.021736274 -0.24583621
000210 e0 24 46 3e 05 11 b2 bc 0a 4b 39 be b7 c4 34 be
       0.19350004 -0.021736631 -0.18095031 -0.17653166
000220 25 9f 15 3e d6 81 8f bd 5e 2e cc bd 8f b6 d0 3b
       0.1461149 -0.07007186 -0.09969781 0.006369419
000230 6e 05 04 be 40 20 21 3e f5 e5 e7 bd 68 c6 5d be
       -0.12892696 0.15734959 -0.11323158 -0.21657717
000240 0c 6a 40 3e a6 7f c7 3e ef 5c ce 3d 0a 0a e4 be
       0.18790454 0.38964576 0.100763194 -0.4453891
000250 12 ae b0 3e 06 56 99 3e ca e4 e7 3e f1 a1 be 3e
       0.34507805 0.29948443 0.4529174 0.37232926
000260 73 5a 76 3e 8f 44 ac 3e c4 79 0a 3f a7 3a e4 3e
       0.24057941 0.33646056 0.5409205 0.44575998
000270 71 8f a3 3d 21 2e d2 be c8 d6 09 3e 73 ed 2e 3e
       0.07986344 -0.4105082 0.13460839 0.17082767
000280 03 11 8f 3e da ee 08 3f
       0.27942666 0.5348946

bias f4 [9]
000000 16 10 17 3e d7 e0 f1 3d f6 94 1f be 2e 6d 32 bc
       0.1475223 0.11810463 -0.15584168 -0.010890288
000010 52 cc b6 3e 6b 84 21 bd ed 04 c7 bc 15 7e 49 be
       0.3570276 -0.039432924 -0.024294341 -0.19677003
000020 2c 91 a4 3d
       0.08035502

weight f4 [3, 9]
000000 2a 9e c2 bc a0 49 7d be 8c 6b d9 bd 5e a6 1d be
       -0.02375706 -0.24735117 -0.10616216 -0.15395495
000010 66 c4 91 3e 10 4b d2 be 4b bb 16 3e 00 7a b9 3b
       0.28470153 -0.41072893 0.14719884 0.0056602955
000020 8d f3 6c bd 66 35 f9 3e 2c 14 3d bd dd 36 01 3f
       -0.057849456 0.48673552 -0.046161816 0.5047434
000030 12 69 1f 3f ec 73 91 3e 88 fa aa 3e f2 35 14 be
       0.622697 0.28408754 0.33394265 -0.14473704
000040 e8 52 9b be 39 99 13 3f 45 50 fc 3d c7 5d 0b 3e
       -0.3033669 0.57655674 0.12319998 0.13609992
000050 e9 83 6f be b1 39 72 bd c6 78 84 be 7e ed bb 3c
       -0.23390163 -0.05913705 -0.25873393 0.022940394
000060 50 97 de bb d5 14 91 3e c4 b2 50 3e
       -0.00679294 0.28336206 0.20380694

bias f4 [3]
000000 c8 4c 10 3f 9a d9 4d be 34 dc 20 bd
       0.5636716 -0.2010254 -0.039272502

weight f4 [2, 3]
000000 6b bb 62 3f 38 e9 35 bf 14 1f 56 bd 6d fe 44 bf
       0.8856723 -0.7105899 -0.052275732 -0.7695072
000010 b5 55 3c 3f ae 57 a2 be
       0.7356828 -0.3170752

bias f4 [2]
000000 ba d9 09 3e db aa 7b be
       0.13461962 -0.24576895
