models/compas/ann.pt (torch, 5431 bytes, 8 tensors)

weight f4 [18, 7]
0	0x3fa31957	1.2742108
1	0x3e983783	0.29729852
2	0xbf0e10d2	-0.55494416
3	0xbf4071f7	-0.75173897
4	0x3e0f02a0	0.13965845
5	0x3e002bd5	0.1251672
6	0x3d534e97	0.05158862
7	0x3f0a643e	0.5405921
8	0x3d81af95	0.06332318
9	0xbf2ec9f0	-0.6827688
10	0xbeef9f72	-0.46801335
11	0x3e588e9e	0.21148154
12	0xbdc4cac7	-0.09608989
13	0x3edb5caf	0.4284415
14	0x3f3dd2b0	0.7414961
15	0xbcc26582	-0.023730043
16	0xbf71b381	-0.94414526
17	0xbfcf6e13	-1.6205467
18	0x3e903c82	0.28171164
19	0x3e7a8882	0.24466136
20	0xbe8ece8b	-0.27891955
21	0x3f50898a	0.8145987
22	0xbe2880a0	-0.16455317
23	0x3de7d915	0.11320702
24	0x3e57a78c	0.21060008
25	0x3da23afd	0.07921407
26	0x3ea49ba1	0.32149985
27	0x3d9b26c6	0.07575755
28	0xbea3cad7	-0.31990692
29	0x3e32cfb7	0.1746205
30	0x3f905c98	1.1278257
31	0x3f7049f3	0.9386284
32	0x3dcecbb4	0.10097447
33	0x3e17d36b	0.14826743
34	0x3e3a1618	0.1817249
35	0x3d34d5a8	0.04414907
36	0xbd0f7b40	-0.03502965
37	0x3e443584	0.1916104
38	0xbeb14903	-0.34626016
39	0x3daf3fdd	0.08557103
40	0xbd54e001	-0.05197144
41	0xbea93430	-0.33047628
42	0xbf77a068	-0.96729136
43	0xbe2e51cf	-0.17023395
44	0x3f4282fc	0.75981116
45	0x3ee197ac	0.4406103
46	0x3e5de2ce	0.2166855
47	0x3e2aa92d	0.16666098
48	0x3d07df31	0.033171836
49	0x3f9bbfb9	1.2167884
50	0xbe39e521	-0.18153812
51	0xbf3195eb	-0.6936938
52	0xbe52d719	-0.20589866
53	0x3e6c02f7	0.23048006
54	0xbd86982f	-0.065719955
55	0x3d888286	0.0666552
56	0x3f86300b	1.0483412
57	0xbe22527f	-0.15851782
58	0xbf3b2ce6	-0.73115385
59	0xbf22cdc5	-0.6359523
60	0x3e2c47a9	0.16824211
61	0x3d44eaba	0.048075415
62	0x3edf2613	0.43583736
63	0x3fa1463d	1.259956
64	0x3e4dc273	0.20093708
65	0xbf84f33a	-1.0386727
66	0xbf8bd777	-1.092513
67	0xbead80f6	-0.33887452
68	0x3de441c1	0.11145354
69	0xbcdc7cef	-0.026915042
70	0xbf2fd3a6	-0.68682325
71	0x3e66bbf2	0.22532633
72	0x3f82f993	1.0232414
73	0x3f3ef94f	0.74599165
74	0xbdf7db93	-0.12102427
75	0x3e29f277	0.16596399
76	0x3e5a49f2	0.2131727
77	0x3f1d21ef	0.61379904
78	0xbeae884b	-0.34088358
79	0xbf420e70	-0.7580328
80	0xbe503079	-0.20330991
81	0xbe75a8c8	-0.23990166
82	0x3e7d543b	0.24739163
83	0x3e385220	0.18000078
84	0x3f767bbf	0.9628257
85	0xbe8ddd66	-0.27707976
86	0xbf179b0e	-0.5922097
87	0xbed7a8b9	-0.42120913
88	0x3e714bce	0.23564073
89	0x3ea16cb4	0.31528246
90	0xbdbeec84	-0.093224555
91	0xbf3ae0d9	-0.7299934
92	0x3c3ae528	0.011407174
93	0x3f80d13f	1.0063857
94	0x3eb4865c	0.35258758
95	0xbce1ac3c	-0.027547948
96	0xbe35ef72	-0.17767122
97	0x3eaef0b6	0.34168023
98	0x3f0dc46a	0.5537783
99	0x3da89e2f	0.08233296
100	0xbf347673	-0.7049324
101	0xbecd5b74	-0.40108836
102	0x3e866c8c	0.2625469
103	0x3e81cbeb	0.2535089
104	0x3eabab79	0.3352926
105	0xbeb486f9	-0.35259226
106	0x3bf5663b	0.0074889935
107	0xbea14f68	-0.31505895
108	0x3e235fab	0.15954463
109	0xbe9baa62	-0.3040343
110	0xbe2f4bcb	-0.17118756
111	0xbddb6ff0	-0.1071471
112	0xbe7ab862	-0.24484399
113	0x3d82e9a9	0.063922234
114	0x3f2d77be	0.6776084
115	0xbdcde891	-0.10054124
116	0xbed00361	-0.40627578
117	0x3ea20978	0.3164785
118	0xbf2e481d	-0.68078786
119	0xbf3745b8	-0.7159076
120	0x3eb82ccb	0.35971674
121	0x3f41c29d	0.7568758
122	0x3ebc39d6	0.36762875
123	0xbe8ee6da	-0.279105
124	0xbe89efc3	-0.26940736
125	0x3e442afe	0.19157025

bias f4 [18]
0	0x3e38fb44	0.180646
1	0x3ef586f4	0.47954524
2	0x3d8a0f2d	0.06741176
3	0xbee80069	-0.45312813
4	0xbc68a4a5	-0.014199411
5	0xbe3cc858	-0.184358
6	0x3d7cfdf7	0.061765637
7	0x3e905d27	0.2819607
8	0x3e02b8ac	0.12765759
9	0x3f028d6e	0.50997055
10	0xbda28223	-0.07934978
11	0x3eb1b34a	0.347071
12	0x3dcd9194	0.100375324
13	0x3e2f869e	0.17141196
14	0xbe5854a7	-0.21126042
15	0xbd403694	-0.04692705
16	0x3d430d21	0.047619943
17	0x3e4f940d	0.2027132

weight f4 [9, 18]
0	0x3e1639e3	0.1467052
1	0x3c9812a2	0.018563572
2	0xbe42d324	-0.19025856
3	0xbeb4a59d	-0.35282603
4	0x3f037866	0.5135559
5	0x3c923147	0.017845763
6	0x3f3a3355	0.72734576
7	0xbea6d665	-0.32585445
8	0x3cc3cd9b	0.023901751
9	0xbd6ea0fe	-0.058259003
10	0x3ec5d8c6	0.38641948
11	0x3d4816b0	0.04884976
12	0x3c825270	0.01590845
13	0x3e71d075	0.23614676
14	0xbda400b4	-0.080079466
15	0x3c82ebaf	0.015981523
16	0x3f1b6922	0.60707295
17	0x3e45d0e0	0.1931796
18	0xbc4ecebc	-0.0126225315
19	0xbe4e1f7d	-0.201292
20	0xbe308ab5	-0.17240413
21	0x3dd804f0	0.10547817
22	0xbe01eb3f	-0.12687396
23	0x3deea9f2	0.11653508
24	0x3e6ec6f0	0.23318076
25	0x3d6f7efd	0.058470715
26	0xbdce8828	-0.100845635
27	0x3be0b8cb	0.0068579665
28	0xbdbe3cc6	-0.09288935
29	0xbe62f0d6	-0.22162184
30	0x3e5fc93b	0.21854107
31	0x3c4ad408	0.012379654
32	0x3e181799	0.14852752
33	0xbdbc224f	-0.09186231
34	0x3cd1c868	0.025608256
35	0x3e1fd299	0.1560768
36	0xbe327cc3	-0.17430405
37	0xbc18c7d8	-0.00932499
38	0x3e100ea9	0.14068092
39	0x3db24b64	0.08705786
40	0xbd645291	-0.055742804
41	0x3e3c4b0f	0.18388008
42	0x3d7d5d8d	0.061856795
43	0xbd2f199f	-0.042749044
44	0x3c877658	0.016535923
45	0xbe247ffd	-0.16064449
46	0x3e156e5e	0.14592883
47	0xbcc268e3	-0.023731655
48	0xbd1d84c5	-0.038456697
49	0xbe10ca7c	-0.14139742
50	0xbe564f31	-0.20928647
51	0xbdb000f3	-0.08593931
52	0xbdd243d4	-0.102668434
53	0x3e0ecaa3	0.13944487
54	0x3e9f50ea	0.3111642
55	0x3eb2dd85	0.3493463
56	0x3efa42dd	0.48879138
57	0x3ec93f8b	0.39306292
58	0xbf109c07	-0.5648808
59	0xbe576ec7	-0.21038352
60	0xbf3f25c9	-0.7466703
61	0x3ea46035	0.3210465
62	0x3f047647	0.51742977
63	0x3f2d5dec	0.6772144
64	0xbeffb893	-0.49945506
65	0x3f053623	0.5203573
66	0x3ee9f5ff	0.45695493
67	0xbec19f05	-0.37816635
68	0x3ea11baf	0.31466433
69	0x3b9174b7	0.0044389623
70	0xbf078696	-0.52939737
71	0xbeaf3e24	-0.34227097
72	0x3eb29147	0.34876463
73	0x3e69490b	0.2278177
74	0x3f20edd4	0.62862897
75	0x3f34abc8	0.7057462
76	0xbe3821cf	-0.17981647
77	0xbdfb4a1a	-0.12269993
78	0xbf292b19	-0.66081387
79	0x3f10b79b	0.5653016
80	0x3e55512b	0.20831744
81	0x3f18279e	0.5943545
82	0xbe9a6862	-0.30157763
83	0x3f0f1a1b	0.5589921
84	0x3efd192e	0.49433273
85	0xbea81e67	-0.32835695
86	0xbc93ba53	-0.018033182
87	0xbe16b790	-0.14718461
88	0xbeaa0480	-0.33206558
89	0xbe3e60c0	-0.18591595
90	0xbe1554dd	-0.14583154
91	0xbd924214	-0.0714151
92	0xbe13d22c	-0.14435643
93	0xbd8782ca	-0.06616743
94	0xbe1ed744	-0.15511805
95	0x3d888d1f	0.06667542
96	0xbde47787	-0.111556105
97	0xbdb29b6f	-0.08721053
98	0x3d9efbb8	0.07762855
99	0x3d86b7b2	0.06578006
100	0x3c7b4d64	0.015338276
101	0x3cee9c45	0.02912725
102	0xbdba92a1	-0.091099985
103	0xbd52735d	-0.05137955
104	0xbc8b4eae	-0.01700529
105	0x3e1e0af1	0.15433861
106	0x3d90e6f4	0.07075301
107	0xbe3b1395	-0.18269189
108	0x3d22de07	0.039762523
109	0x3e1eeb7f	0.15519522
110	0xbe9eac9a	-0.3099106
111	0xbe747d2e	-0.23875877
112	0x3f0fc200	0.56155396
113	0x3be84953	0.007088819
114	0x3f0ec2a1	0.5576573
115	0xbe782a06	-0.2423478
116	0x3ddd82ff	0.10816001
117	0xbe4e63c9	-0.20155253
118	0x3ef2fff8	0.47460914
119	0x3dda2abf	0.106526844
120	0xbe77ad08	-0.241871
121	0x3ec78ec5	0.38976112
122	0x3c086b1c	0.008326318
123	0x3de64cb5	0.112450995
124	0x3ef24bee	0.47323555
125	0x3e09a237	0.13440786
126	0xbd455efe	-0.048186295
127	0x3d3ecb7d	0.04658078
128	0x3d55f376	0.052234136
129	0xbe5a1483	-0.21296887
130	0x3e6da98f	0.23209213
131	0x3c6ba72b	0.014383118
132	0x3d44c0b8	0.048035353
133	0xbd1971f6	-0.037462197
134	0xbe149187	-0.1450864
135	0x3dbc09d7	0.09181564
136	0xbe15813d	-0.14600082
137	0x3da2fced	0.07958398
138	0x3dc2e182	0.095156685
139	0xbe09279a	-0.13394013
140	0xbe05d3c0	-0.13069057
141	0x3e1e5605	0.15462501
142	0xbd0ba514	-0.034092978
143	0xbe3fa319	-0.1871456
144	0x3e3a25e8	0.18178523
145	0xbe3e36a5	-0.18575533
146	0xbce191fe	-0.027535435
147	0x3d56ab4f	0.052409466
148	0x3d42d02f	0.04756182
149	0x3e303066	0.17205963
150	0x3dfd9c96	0.12383382
151	0x3e037479	0.128374
152	0xbc3f4fa1	-0.0116767
153	0xbe34239d	-0.1759171
154	0xbe5f7e71	-0.21825577
155	0x3c9c96c4	0.01911486
156	0xbcde3362	-0.02712411
157	0x3d531dad	0.051541973
158	0xbcbc45d0	-0.022982508
159	0x3d821aa9	0.06352741
160	0xbdc722ac	-0.0972341
161	0xbe41282f	-0.18862985

bias f4 [9]
0	0x3e2eed37	0.17082678
1	0xbe63ea37	-0.22257315
2	0xbe4c6c28	-0.19963133
3	0x3ecfb939	0.40571
4	0x3ee79dc2	0.45237547
5	0x3c9801f5	0.01855562
6	0x3e23281b	0.15933268
7	0xbe4ce4f0	-0.20009208
8	0xbe3dd38a	-0.18537727

weight f4 [3, 9]
0	0xbe9caa26	-0.30598563
1	0x3c16edab	0.009211938
2	0xbc39eb56	-0.011347612
3	0xbdafd7c0	-0.08586073
4	0x3d5eec40	0.054424524
5	0xbdd1aa16	-0.102375194
6	0x3d92486b	0.07142719
7	0x3bd2dfab	0.0064353547
8	0x3e883767	0.2660477
9	0xbe8c6e3b	-0.2742785
10	0xbb134b56	-0.0022475324
11	0x3e2f0ce3	0.1709476
12	0x3f26a23f	0.6509132
13	0x3ef8ec78	0.4861791
14	0xbd136b16	-0.035990797
15	0xbeba2d1f	-0.3636255
16	0x3e5ea450	0.21742368
17	0x3e12753b	0.14302532
18	0xbd9cc8e6	-0.07655506
19	0xbcc76c80	-0.024343729
20	0x3e1d5c63	0.15367274
21	0x3e0b0652	0.1357663
22	0xbdb2a241	-0.08722354
23	0xbb978dab	-0.0046250424
24	0x3dde39d6	0.10850875
25	0xbd87ac36	-0.066246435
26	0xbe8d5687	-0.27605078

bias f4 [3]
0	0xbd1f2ee0	-0.038863063
1	0x3ee0671c	0.43828666
2	0xbec54add	-0.3853368

weight f4 [2, 3]
0	0xbf0dbc35	-0.55365306
1	0xbebd324b	-0.36952433
2	0x3d6409ef	0.055673536
3	0x3eacf22d	0.33778515
4	0x3f6cf64d	0.92563325
5	0xbe66e56a	-0.22548452

bias f4 [2]
0	0x3e071b05	0.13193901
1	0xbf6a33b8	-0.91485167
