models/compas/linear.pt (torch, 1857 bytes, 2 tensors)

weight f4 [2, 7]
00000000: d856 a8bf a2e3 ad3e d3f3 b13f 3557 743f
00000010: 6b3b acbe 8a93 a2be c3c6 90be eb72 b53f
00000020: 6945 0ebf 4eae e4bf 762f a3bf 90db 863e
00000030: 9e5a 0f3f d0f8 74be
-1.3151503 0.33962733 1.3902534 0.9544557 -0.33639082 -0.31753188 -0.28276643 1.4175695
-0.5557466 -1.7865694 -1.2748859 0.26339388 0.55997646 -0.2392304

bias f4 [2]
00000000: 9509 0cbf 727a 3a3f
-0.5470212 0.72843087
