models/compas/linear.pt (torch, 7190 bytes, 4 tensors)

weight f4 [2, 10]
00000000: 654c 8a3f 30aa 01bf 0648 b2bf 0414 52bf
00000010: 7adb 8b3e b7d6 e43e 88c6 de3c a126 013f
00000020: d7c8 e13c 775f e93d bcf6 b73f ac3a acbc
00000030: 4c81 a1bf bbb1 7bbf 155f d83e 3de8 033f
00000040: 05ca 0f3e 7fe8 06bd 95ce 823e fc7b c43d
1.0804564 -0.5065031 -1.392823 -0.8206179 0.27315885 0.44695064 0.027194276 0.5044957
0.027561588 0.113951616 1.4372172 -0.02102407 -1.2617583 -0.9831807 0.42260042 0.5152624
0.14041908 -0.03293657 0.25548235 0.09593961

bias f4 [2]
00000000: f831 2a3e bd2f a73e
0.16620624 0.3265361

weight f4 [2, 2]
00000000: 1298 1ebf fc02 9abf f78c b13f f0b9 093e
-0.6195079 -1.2032161 1.3871144 0.13449836

bias f4 [2]
00000000: 7c16 043f 98bd 8bbe
0.5159681 -0.27293086
