models/compas/linear.pt (torch, 5647 bytes, 2 tensors)

weight f4 [2, 10]
000000 32 b8 97 bf 0b 54 f7 3e 82 bd a9 3f 97 09 80 3f
       -1.1853087 0.48306307 1.3260958 1.0002927
000010 20 13 8c be 03 3f e8 be 7f fa 82 be d1 6f 06 bf
       -0.2735834 -0.45360574 -0.25581738 -0.5251437
000020 9b 91 78 be a9 89 c2 bd fd 50 88 3f d0 6f 01 bf
       -0.24274294 -0.09498913 1.0649716 -0.5056124
000030 87 2a cd bf cd 83 a0 bf d5 6a 80 bb 64 0a 4d 3e
       -1.6028603 -1.2540222 -0.0039189854 0.20023495
000040 61 b7 39 3d 91 f5 15 3f e7 86 b3 3e e1 b7 91 3e
       0.0453409 0.5857783 0.3506386 0.284606

bias f4 [2]
000000 64 68 7b be 7f 81 d6 3e
       -0.2455154 0.41895673
